Code/coda-pca-orig/coda/codes/model_weights.pth (torch_old, 28069 bytes, 10 tensors)

linear.weight f4 [2, 10]
0	0xbd65f5ef	-0.056142744
1	0xbd2b8463	-0.0418743
2	0xbe5b34c6	-0.2140685
3	0x3c8d4fc2	0.017249946
4	0x3d166e7d	0.036726464
5	0x3d29fd15	0.041501123
6	0xbd81db29	-0.063406296
7	0x3e3dc36c	0.18531579
8	0xbcbed74b	-0.023296019
9	0xbe356040	-0.17712498
10	0x3dc2a62d	0.09504352
11	0xbdcefba9	-0.10106594
12	0x3c656af1	0.014002548
13	0xbe2ba1a9	-0.16760887
14	0xbe3e8ed2	-0.18609169
15	0x3dd97883	0.10618689
16	0x3de12994	0.109942585
17	0x3c356854	0.011072237
18	0xbe1b259b	-0.15151064
19	0xbe2acddf	-0.16680096

linear.bias f4 [2]
0	0x3e72b168	0.23700488
1	0x3d001f87	0.031280067

encoder.layer0.weight f4 [20, 200]
0	0x3e4520d0	0.19250798
1	0x3dfc6c33	0.12325325
2	0x3e22d784	0.15902525
3	0x3e253fd2	0.16137627
4	0x3e4343db	0.19068854
5	0x3e4c2304	0.19935232
6	0x3e641ba6	0.22276172
7	0x3e1f156a	0.15535513
8	0x3e6716a2	0.22567227
9	0x3df203f2	0.11817159
10	0x3e0cf9f1	0.1376722
11	0x3e116486	0.14198503
12	0x3e2e4430	0.17018199
13	0x3e6fe84b	0.23428456
14	0x3e6d40a4	0.2316919
15	0x3e34298c	0.17593974
16	0x3e2ba996	0.1676391
17	0x3df58e5e	0.11990045
18	0x3e37ec4d	0.17961235
19	0x3e1cf398	0.15327299
20	0x3e4fec07	0.20304881
21	0x3e6d4533	0.23170929
22	0x3e36309e	0.17791983
23	0x3e5d21a1	0.2159486
24	0x3e803170	0.25037718
25	0x3e316f90	0.17327714
26	0x3e5a6823	0.21328788
27	0x3e81856a	0.252971
28	0x3e6519ae	0.22373077
29	0x3e22500f	0.15850852
30	0x3e3dc0be	0.18530557
31	0x3e2571af	0.16156648
32	0x3e330d91	0.17485644
33	0x3e80dab4	0.25166857
34	0x3e47c979	0.1951045
35	0x3e56d925	0.20981272
36	0x3e6a3fbf	0.2287588
37	0x3e41ab7d	0.18913074
38	0x3e7d1df5	0.24718459
39	0x3e591be6	0.21202049
40	0x3e48ff3b	0.19628613
41	0x3e5e4515	0.2170604
42	0x3e664bef	0.22489904
43	0x3e470a20	0.19437456
44	0x3e53f350	0.20698285
45	0x3e5215e3	0.20516162
46	0x3e6c954d	0.23103829
47	0x3e5a9a8c	0.21348017
48	0x3e197714	0.14986831
49	0x3e3b26f7	0.18276583
50	0x3dfccc4e	0.123436555
51	0x3e163b41	0.14671041
52	0x3e0d4ed3	0.137996
53	0x3e5a1ce7	0.21300088
54	0x3e58410b	0.21118562
55	0x3e1eb614	0.15499145
56	0x3e16253c	0.14662641
57	0x3e04f4e2	0.1298404
58	0x3e299319	0.1656002
59	0x3e489283	0.1958714
60	0x3e0b3d11	0.13597514
61	0x3e045b58	0.1292547
62	0x3e5725c2	0.21010497
63	0x3df4855b	0.11939498
64	0x3e7c5b52	0.24644211
65	0x3e584d0c	0.21123141
66	0x3def90ab	0.11697515
67	0x3e2fc293	0.17164068
68	0x3e5ad08c	0.21368617
69	0x3e435b3a	0.19077769
70	0x3e05d964	0.13071209
71	0x3e2e4dd6	0.1702188
72	0x3e21d75a	0.15804806
73	0x3e4fd03c	0.20294279
74	0x3e3742f8	0.1789664
75	0x3e3d6e15	0.18499024
76	0x3e779a9d	0.24180074
77	0x3e6030cf	0.21893619
78	0x3e2283e5	0.15870626
79	0x3e534875	0.20633109
80	0x3ded85b2	0.11597766
81	0x3e44c0ad	0.19214125
82	0x3e21ba1f	0.15793656
83	0x3e20e5ba	0.15712634
84	0x3e113c82	0.14183238
85	0x3e493c19	0.19651832
86	0x3e7e553d	0.24837203
87	0x3e673b73	0.22581272
88	0x3e4c7212	0.1996539
89	0x3e442b00	0.19157028
90	0x3dfaf9d0	0.12254679
91	0x3e232f5c	0.15936035
92	0x3e3e99b1	0.18613316
93	0x3e3e76ce	0.18600008
94	0x3dfeefd3	0.124480866
95	0x3e75379d	0.23946996
96	0x3e7583b5	0.23976023
97	0x3e58de74	0.21178609
98	0x3e3a7728	0.18209517
99	0x3e65f2e2	0.22455934
100	0x33b9155e	8.6186205e-08
101	0xbb6b68e6	-0.0035920679
102	0xb929a692	-0.00016179148
103	0xba666763	-0.00087892095
104	0x2d45bffa	1.1240781e-11
105	0xbb882cf4	-0.0041557495
106	0x3b133726	0.002246329
107	0x3087ecc0	9.889831e-10
108	0xb164a5b8	-3.3272567e-09
109	0x3a292a6c	0.000645316
110	0x338a8e2f	6.451989e-08
111	0xba8839a1	-0.0010393151
112	0x9fbbde63	-7.956549e-20
113	0x1689253e	2.2157047e-25
114	0x9900f0b7	-6.666057e-24
115	0xb62f36f5	-2.6109021e-06
116	0x36ec5721	7.043491e-06
117	0xbb6d2170	-0.003618326
118	0x378a50c8	1.6488499e-05
119	0x350877e1	5.0838395e-07
120	0x161dce30	1.274742e-25
121	0x212903cd	5.726446e-19
122	0xbb066780	-0.0020508468
123	0x98eb6c7b	-6.0855614e-24
124	0x208d83a1	2.3973434e-19
125	0x3b9cd247	0.004785809
126	0xb9b70d90	-0.00034914585
127	0x2ff203e3	4.4022305e-10
128	0x9a711956	-4.9858098e-23
129	0xb04247ec	-7.0678996e-10
130	0xa854a76d	-1.1804669e-14
131	0x3bafad98	0.00536127
132	0x36de3133	6.621843e-06
133	0x362add13	2.5460656e-06
134	0xb0d0f25b	-1.5202873e-09
135	0xba19f567	-0.00058730546
136	0xb866f52d	-5.506461e-05
137	0x17afdbe2	1.1364616e-24
138	0xb9dfd39b	-0.00042691533
139	0xb55924c1	-8.0892283e-07
140	0xbb867745	-0.0041035735
141	0xba2bbce2	-0.0006551278
142	0x37e38037	2.7120213e-05
143	0x3b714123	0.0036812506
144	0x3ab25d02	0.0013608041
145	0xb62304a3	-2.4291592e-06
146	0xbb69bc3a	-0.003566517
147	0x389022f7	6.872968e-05
148	0x3bb2ea23	0.00546004
149	0x36c365fa	5.8233245e-06
150	0x199722e9	1.5627134e-23
151	0xa03e3435	-1.61109e-19
152	0xacc1b71f	-5.5057204e-12
153	0xb47074ee	-2.239428e-07
154	0xbb4e1135	-0.0031443362
155	0x138d2436	3.562911e-27
156	0x97485830	-6.4734794e-25
157	0xba2bb9bd	-0.00065508095
158	0x3b3fce97	0.0029267424
159	0x9310852c	-1.8241014e-27
160	0x396eca37	0.0002277278
161	0x3625ed18	2.4724923e-06
162	0xb8d79e24	-0.00010281455
163	0x9cda7e62	-1.4458699e-21
164	0xbacd7580	-0.0015675277
165	0x3bb5ee64	0.0055521
166	0x3b0d2492	0.002153669
167	0xa38ab539	-1.503874e-17
168	0x3b93b468	0.00450759
169	0xb87a83ed	-5.972751e-05
170	0x21bc9977	1.2779997e-18
171	0x39d28c9f	0.00040159092
172	0xb5e4a0d2	-1.7034129e-06
173	0x16876f6a	2.1880738e-25
174	0x9c92316d	-9.674246e-22
175	0xb91f67c3	-0.00015202076
176	0x96824c48	-2.1050773e-25
177	0xa1ff8058	-1.7313444e-18
178	0xa85b5603	-1.2175593e-14
179	0x3bc08e46	0.0058763353
180	0x1d2b5a05	2.26782e-21
181	0xbbe3abd4	-0.0069479737
182	0x1e27ce0a	8.883514e-21
183	0x15a719f3	6.7491703e-26
184	0xa59ec016	-2.7538793e-16
185	0xbb4f25d0	-0.0031608231
186	0x1c927349	9.69127e-22
187	0x3a9e7ede	0.0012092253
188	0xba052d1f	-0.0005080271
189	0x14cbce27	2.0579075e-26
190	0x3b75b6ef	0.003749307
191	0x3a8819d4	0.0010383674
192	0xbbcd6f4c	-0.006269371
193	0xb980e0c2	-0.0002458152
194	0xbbaea85b	-0.005330128
195	0x2d070910	7.675874e-12
196	0xbbe57daa	-0.0070035057
197	0x3bcfe85a	0.006344837
198	0x3b52c2fb	0.0032159674
199	0x3b863325	0.0040954524
200	0xbe2d1d52	-0.16905716
201	0xbe3d382a	-0.18478456
202	0xbe79238d	-0.24329968
203	0xbdea8797	-0.11451643
204	0xbdfe1ea9	-0.12408192
205	0xbdff8cbb	-0.12478014
206	0xbe3bdb81	-0.18345453
207	0xbe78a098	-0.24280012
208	0xbe566e60	-0.20940542
209	0xbe401b9c	-0.18760532
210	0xbe422855	-0.18960698
211	0xbdf21900	-0.118211746
212	0xbe69afca	-0.22820964
213	0xbe3d8bf3	-0.18510418
214	0xbdfc2b3f	-0.12312936
215	0xbe565f03	-0.20934682
216	0xbe3b9cf8	-0.18321598
217	0xbe5163ab	-0.20448177
218	0xbe02389d	-0.12716909
219	0xbde420e6	-0.111390874
220	0xbe1f960c	-0.15584582
221	0xbe781625	-0.24227197
222	0xbe1bf28d	-0.15229245
223	0xbe0d24c8	-0.13783562
224	0xbe6befce	-0.23040697
225	0xbe1fe0de	-0.15613124
226	0xbe3deadd	-0.18546624
227	0xbdfa977c	-0.122359246
228	0xbe035466	-0.12825164
229	0xbe49d040	-0.19708347
230	0xbe75ad7f	-0.23991965
231	0xbe142fde	-0.14471385
232	0xbe773819	-0.24142493
233	0xbe7768f4	-0.2416113
234	0xbdfdfecd	-0.12402115
235	0xbe1f1200	-0.1553421
236	0xbe1ab653	-0.15108614
237	0xbe219b23	-0.15781836
238	0xbe630bc5	-0.22172458
239	0xbe350a68	-0.17679751
240	0xbe5c4d26	-0.21513805
241	0xbe43bd49	-0.19115175
242	0xbe0464af	-0.12929033
243	0xbe627b95	-0.22117455
244	0xbe612911	-0.21988322
245	0xbe40ca58	-0.18827188
246	0xbe1af426	-0.15132198
247	0xbe3773d0	-0.17915273
248	0xbe554430	-0.20826793
249	0xbe13a3ba	-0.14417925
250	0xbe78b80a	-0.24288955
251	0xbde0819e	-0.109622225
252	0xbe58ec36	-0.21183857
253	0xbe2668be	-0.16250893
254	0xbe14fe71	-0.14550187
255	0xbe16df6f	-0.1473367

encoder.layer0.bias f4 [20]
0	0x3e0aed91	0.13567187
1	0xbe0eb403	-0.13935857
2	0xbe71292d	-0.23550864
3	0xbe09ec4a	-0.13469043
4	0x3e132122	0.14368108
5	0x3e03ca49	0.12870134
6	0x3e74ad6d	0.23894282
7	0x3e75a117	0.23987232
8	0xbe58ea33	-0.2118309
9	0x3e64ac5f	0.2233138
10	0xbe5727e0	-0.21011305
11	0xbe23fd9a	-0.1601471
12	0x3e4cf1b6	0.2001408
13	0x3e66ae2d	0.2252738
14	0xbe2e97d1	-0.17050101
15	0x3e459924	0.192967
16	0x3e6495ca	0.22322765
17	0x3e3c7029	0.1840216
18	0x3e34db5a	0.17661801
19	0x3e2fcbd4	0.17167598

encoder.final_layer.weight f4 [10, 20]
0	0xbea502a0	-0.32228565
1	0xbc8d99f8	-0.017285332
2	0x3e9bfaa9	0.30464676
3	0x3db40613	0.08790221
4	0xbe97a7ed	-0.29620305
5	0xbeb3efd2	-0.35143906
6	0xbe873887	-0.26410314
7	0xbe8fdcec	-0.28098238
8	0xbcd70f3f	-0.026252387
9	0xbe382ed4	-0.17986614
10	0x3e8f3cc2	0.27976042
11	0x3e24e1c9	0.16101755
12	0xbe998ba1	-0.2998934
13	0xbc98a964	-0.01863546
14	0x3e881fc3	0.26586732
15	0xbcfd99ad	-0.030957067
16	0xbd1b393c	-0.03789638
17	0xbe813b20	-0.2524042
18	0xbe549551	-0.20760085
19	0xbe1cbf75	-0.1530741
20	0xbe9d8c08	-0.30770898
21	0x3e946ead	0.2899069
22	0x3d99c5b2	0.075084105
23	0x3ea6f423	0.32608137
24	0xbea72f78	-0.32653403
25	0xbeb1b529	-0.34708527
26	0x3d1834f2	0.037159868
27	0xbe9b8530	-0.30375051
28	0x3e6cbed2	0.23119667
29	0xbc0fe15c	-0.008781757
30	0x3ec298aa	0.38007098
31	0x3df02dd2	0.117274895
32	0xbeb6ad59	-0.3567913
33	0xbe1c2905	-0.15250023
34	0x3d59d5d1	0.053182427
35	0xbe9e6ced	-0.3094248
36	0xbe73bb05	-0.23801811
37	0xbed34f5a	-0.41271478
38	0xbe5c37cb	-0.21505658
39	0xbe5f15ee	-0.2178571
40	0x3eb03ca4	0.34421265
41	0xbeb1624a	-0.346453
42	0xbd9b25e6	-0.07575588
43	0xbe648bad	-0.22318907
44	0x3d4c6c46	0.049907945
45	0x3da325a8	0.07966167
46	0x3e045c49	0.12925829
47	0x3e272941	0.16324331
48	0xbe9f049d	-0.31058207
49	0x3e94ae0c	0.29039037
50	0xbecccc10	-0.39999437
51	0xbd2a3b23	-0.041560303
52	0x3eac795e	0.33686346
53	0x3eae2eae	0.3401999
54	0xbe834f77	-0.25646564
55	0x3e0f55cf	0.13997577
56	0x3ea61808	0.3244021
57	0x3ed46223	0.41481122
58	0x3e73eb11	0.2382014
59	0x3e88f1c4	0.26746953
60	0x3e9efd2c	0.3105253
61	0xbecbb8a7	-0.39789316
62	0xbec92d36	-0.39292306
63	0x3d228340	0.03967595
64	0x3de1e816	0.11030595
65	0x3e08154c	0.13289374
66	0x3eb5c05a	0.35498315
67	0xbd0bf5ee	-0.034170084
68	0xbdd8f37c	-0.10593316
69	0x3e760ecd	0.24029084
70	0xbd19906e	-0.037491255
71	0xbeacad5d	-0.33726016
72	0x3dfbc212	0.12292875
73	0x3e760085	0.24023636
74	0xbdff89a1	-0.124774225
75	0x3e6cab59	0.23112239
76	0x3e7ff9ba	0.24997607
77	0x3ea0561b	0.31315693
78	0x3da4e0ee	0.080507144
79	0x3e79ef1f	0.24407624
80	0x3daa5452	0.08316864
81	0xbec48f1d	-0.38390437
82	0xbdb82b4a	-0.08992632
83	0xbe075f6e	-0.13219997
84	0x3eb44f02	0.35216528
85	0x3eaac4f5	0.3335339
86	0x3e54636e	0.20741054
87	0x3dd54aa4	0.10414627
88	0xbe9b520e	-0.3033604
89	0x3e294c05	0.16532905
90	0xbed39677	-0.41325733
91	0xbe65ba7d	-0.22434421
92	0x3e95ea3a	0.29280263
93	0x3e780b6c	0.24223107
94	0xbe427c38	-0.18992698
95	0x3dfc20dc	0.12310955
96	0xbc9f35c7	-0.019434823
97	0x3e42eda4	0.19035965
98	0x3e8317df	0.2560415
99	0x3ec6b8c2	0.38812834
100	0xbc176069	-0.009239295
101	0xbd845f73	-0.06463518
102	0xbe23a9e4	-0.15982777
103	0xbe5309a1	-0.20609142
104	0x3ebf7c44	0.37399495
105	0xbcaa075d	-0.020755464
106	0x3e7f64e3	0.24940829
107	0x3e7ad808	0.24496472
108	0xbea54c73	-0.3228489
109	0x3e4df024	0.20111138
110	0xbe81f12b	-0.2537931
111	0xbdda83dc	-0.106696814
112	0xbd00ed65	-0.031476397
113	0x3e3d2b9c	0.18473667
114	0xbeb5e7e5	-0.35528484
115	0x3e8f8214	0.2802893
116	0x3cb10e38	0.021613225
117	0x3d831497	0.064004116
118	0x3dfd0a8b	0.123555265
119	0x3d9f8522	0.07789065
120	0x3ca17d9f	0.019713221
121	0x3eae13f4	0.33999598
122	0x3ddc65a7	0.10761576
123	0x3c0b4768	0.008500911
124	0xbdcf62c8	-0.10126263
125	0x3d8caf47	0.06869369
126	0xbeba720f	-0.36415145
127	0xbeb518bc	-0.35370433
128	0x3e927f5d	0.28612795
129	0xbdbf084a	-0.09327753
130	0x3e3b55f0	0.18294501
131	0x3e282321	0.1641965
132	0xbdb6c84c	-0.08924922
133	0xbea6a653	-0.3254877
134	0x3de60ee6	0.112333104
135	0xbeb15f72	-0.34643131
136	0xbe1b9859	-0.15194835
137	0xbe63c6f9	-0.22243871
138	0xbe47f697	-0.1952766
139	0xbe7a4fb8	-0.24444473
140	0x3cf1a428	0.029497221
141	0x3d2a3a5d	0.041559566
142	0x3e8fe2d6	0.2810275
143	0x3eac824d	0.33693162
144	0x3c054fa7	0.008136666
145	0xbe9d9669	-0.30778816
146	0xbec61d71	-0.38694337
147	0xbe821652	-0.25407654
148	0x3e3ab7a4	0.18234116
149	0xbe2dccc1	-0.16972639
150	0x3dcfad04	0.10140422
151	0x3e5ae375	0.2137583
152	0xbe6be860	-0.23037863
153	0xbe6552ce	-0.22394869
154	0x3ec18eaf	0.3780417
155	0xbeb24673	-0.34819373
156	0x3c6ec117	0.014572403
157	0xbdc61982	-0.09672834
158	0xbe69871e	-0.2280545
159	0x3d5183fb	0.051151257
160	0xbdac0cd7	-0.084008865
161	0x3e08a263	0.13343196
162	0x3c103200	0.008800983
163	0x3e35dd85	0.17760284
164	0xbe4bd889	-0.1990682
165	0xbeaf440b	-0.342316
166	0xbd54b9e3	-0.051935088
167	0xbe267b30	-0.1625793
168	0xbba27df6	-0.0049588634
169	0xbe83c9d2	-0.25739914
170	0xbd2b44cc	-0.041813657
171	0x38ae5af0	8.313905e-05
172	0xbd9b26be	-0.07575749
173	0xbe1fc038	-0.1560067
174	0x3eacd6e9	0.33757713
175	0xbec80d05	-0.39072433
176	0xbeaa0392	-0.3320585
177	0xbdd24b24	-0.10268238
178	0xbe8bb9d2	-0.27290207
179	0xbe934526	-0.28763694
180	0xbe7a3b6d	-0.24436732
181	0x3e3862f2	0.18006495
182	0x3e02b691	0.12764956
183	0x3ea4e7eb	0.3220819
184	0xbe1f1be8	-0.15537989
185	0xbeb4a6e4	-0.35283577
186	0xbebfe17b	-0.37476715
187	0x3c2c9ab2	0.010534929
188	0x3e5f7ae9	0.2182423
189	0xbd24920d	-0.040178347
190	0x3e3c9cb0	0.18419147
191	0x3eab8820	0.33502293
192	0xbd9c7da4	-0.076411515
193	0xbd73cbf5	-0.05952068
194	0xbc9dd4dc	-0.019266538
195	0xbe4c68b5	-0.19961818
196	0xbe9b034b	-0.3027595
197	0xbda1bb1f	-0.07897019
198	0x3b96e21f	0.0046045925
199	0xbe197ff3	-0.14990215

encoder.final_layer.bias f4 [10]
0	0xbe900078	-0.28125358
1	0x3c8faba8	0.017537907
2	0x3ebef122	0.37293345
3	0x3eac1f0c	0.33617437
4	0x3e6798c9	0.22616877
5	0x3e652851	0.2237866
6	0xbeb10188	-0.3457148
7	0xbe2dd5c3	-0.16976075
8	0x3d5f987a	0.054588772
9	0xbead17b1	-0.33807138

decoder.layer0.weight f4 [20, 10]
0	0xbeb0c38e	-0.34524196
1	0xbe37c757	-0.17947136
2	0x3c164ef7	0.0091741
3	0x3da77d28	0.081781685
4	0x3e5d5f93	0.2161849
5	0x3eebf457	0.46084854
6	0xbdba38bc	-0.090928525
7	0x3c8ee24e	0.017441895
8	0xbe2b9a44	-0.16758066
9	0x3d96ea28	0.073688805
10	0xbc62feb5	-0.013854672
11	0x3ebe50b0	0.37170935
12	0xbee947d9	-0.45562628
13	0xbef0a2b4	-0.46999133
14	0xbe15126b	-0.14557807
15	0xbf01b16c	-0.5066135
16	0x3ed6b7c5	0.4193708
17	0xbd5bfc58	-0.05370745
18	0xbdef1cc0	-0.116754055
19	0xbc755dd9	-0.014975988
20	0x3ed07564	0.40714562
21	0x3eb6437e	0.35598367
22	0xbeea329d	-0.4574174
23	0xbeeff560	-0.46866894
24	0xbeb170f0	-0.34656477
25	0xbec48bfe	-0.38388056
26	0x3ed4bb4e	0.41549152
27	0xbc7ab537	-0.015301994
28	0x3e96e401	0.29470828
29	0xbdbf7ccc	-0.09349975
30	0x3d24cedb	0.040236335
31	0xbd47eb93	-0.048808645
32	0xbee0bced	-0.4389414
33	0xbe4507a6	-0.19241199
34	0xbde71e49	-0.11285073
35	0x3dca7f72	0.098875895
36	0xbe039bfe	-0.12852475
37	0x3e6448a6	0.22293338
38	0x3eb70803	0.357483
39	0xbd9b3eb8	-0.07580322
40	0x3e8c3b12	0.27388817
41	0x3ec34795	0.3814055
42	0xbe8ba408	-0.27273583
43	0xbdb05178	-0.08609289
44	0xbebd3c69	-0.36960152
45	0xbe95dae3	-0.2926856
46	0x3e8b301e	0.27185148
47	0x3ebe5e8c	0.3718151
48	0xbce64ac2	-0.02811182
49	0xbdc37de7	-0.09545498
50	0x3e6afd64	0.22948223
51	0xbda81763	-0.08207586
52	0xbedd442f	-0.43216082
53	0x3dbd7e8d	0.09252653
54	0xbd4dbe63	-0.050230395
55	0xbea5253a	-0.32254964
56	0xbdcafe5a	-0.09911795
57	0x3ebfc2a7	0.37453195
58	0x3e911773	0.28338203
59	0x3ed587d2	0.41705185
60	0x3e0ee3dd	0.1395411
61	0xbdec010b	-0.115236364
62	0xbe53a998	-0.20670164
63	0x3ebe5b1c	0.37178886
64	0x3ea31279	0.3185003
65	0x3e2862ca	0.16443935
66	0x3d9410a6	0.07229738
67	0xbd6440bb	-0.055725794
68	0xbd0d175b	-0.0344461
69	0xbec139b8	-0.37739348
70	0xbee234f0	-0.44181013
71	0xbed83337	-0.42226574
72	0x3dc34a9c	0.09535715
73	0xbd72f6b3	-0.059317302
74	0x3d7bbb2e	0.061457805
75	0x3e978bb4	0.29598773
76	0xbeb318d1	-0.3497987
77	0xbd246cda	-0.04014287
78	0xbe8abb9f	-0.2709627
79	0xbec3f7a9	-0.38274887
80	0xbe1c05fd	-0.1523666
81	0x3e06bb9f	0.1315751
82	0x3dca24d1	0.098703034
83	0x3bc211a2	0.005922512
84	0x3ed1fd78	0.41013694
85	0x3e5b7366	0.2143074
86	0xbe8f8dc1	-0.28037837
87	0xbef6a1ee	-0.48170418
88	0xbd22c152	-0.039735146
89	0xbee9ca1c	-0.4566201
90	0x3da52799	0.08064193
91	0xbdc1369a	-0.094342425
92	0xbee6d949	-0.4508765
93	0x3e020bc9	0.12699808
94	0xbecbba4f	-0.3979058
95	0xbe8f014b	-0.27930674
96	0x3df11b36	0.11772768
97	0x3ec9e990	0.39436007
98	0x3ea35a83	0.31904992
99	0xbd74306e	-0.0596165
100	0x3ef26569	0.47342995
101	0x3c9bf449	0.019037383
102	0xbd54e1cf	-0.05197316
103	0xbe99c0bb	-0.30029854
104	0xbeda285f	-0.42608926
105	0xbc549c38	-0.012976699
106	0x3ea3486c	0.3189119
107	0x3eb8ac29	0.36068848
108	0x3d91ccdc	0.07119152
109	0x3ec39d51	0.3820596
110	0xbe4c8845	-0.19973858
111	0x3e10a677	0.14126001
112	0x3eaca78e	0.33721584
113	0x3ea6624f	0.32496879
114	0x3e7b018e	0.24512312
115	0xbd1d11a4	-0.0383469
116	0x3d9060ad	0.070496894
117	0x3db3399b	0.08751222
118	0xbe6bb19c	-0.23016971
119	0xbebabc78	-0.36471915
120	0x3eef69f3	0.4676052
121	0x3e7b562a	0.24544588
122	0x3d177258	0.03697428
123	0x3cb4407c	0.022003405
124	0xbe9d6610	-0.3074193
125	0x3c095df3	0.008384216
126	0x3e1e7892	0.15475681
127	0x3ed6251e	0.41825193
128	0xbb6fe56b	-0.003660525
129	0x3ecbcc69	0.3980439
130	0xbd8ae461	-0.06781841
131	0x3d1a80c1	0.037720446
132	0x3edb31bc	0.42811382
133	0x3d5fb948	0.054620057
134	0x3e6980bf	0.22803019
135	0x3d563a5b	0.052301746
136	0xbe8718d2	-0.26386124
137	0x3cc0c174	0.023529746
138	0x3e014667	0.12624513
139	0xbecd7645	-0.40129295
140	0x3ecf6b14	0.40511382
141	0x3dd2e571	0.10297669
142	0xbed50e32	-0.41612393
143	0xbed857f2	-0.42254597
144	0x3d3b541f	0.04573452
145	0xbe073456	-0.13203558
146	0x3d78c4d8	0.0607346
147	0x3e983612	0.29728752
148	0x3e5b623c	0.21424192
149	0x3e9d82ff	0.30764005
150	0xbe9ede86	-0.31029147
151	0xbea24a49	-0.316973
152	0x3e1e18d2	0.15439156
153	0x3dcfb202	0.10141374
154	0x3ecebb62	0.40377337
155	0x3edfb4e2	0.4369269
156	0xbef2caa6	-0.47420233
157	0xbe939925	-0.28827778
158	0xbdde7555	-0.10862223
159	0x3d9ebe0e	0.07751094
160	0x3eead48b	0.45865282
161	0x3ebc83f6	0.36819428
162	0xbe79c431	-0.24391247
163	0xbda16e82	-0.07882406
164	0xbe940211	-0.28907827
165	0xbb47e248	-0.0030499864
166	0x3eca923e	0.395647
167	0x3d3dfe1a	0.04638491
168	0x3e58816a	0.21143118
169	0x3eb9a246	0.36256617
170	0xbd1373e2	-0.035999186
171	0x3ce97cfc	0.02850198
172	0x3eac3b59	0.3363903
173	0x3e6327c1	0.22183134
174	0x3f04900e	0.5178231
175	0x3eb8aa74	0.36067545
176	0xbe35b0eb	-0.1774327
177	0xbdc2ef7e	-0.09518336
178	0xbe9167ee	-0.28399605
179	0xbea2b867	-0.31781313
180	0x3e72ead5	0.23722394
181	0x3e3f3bdf	0.18675183
182	0xbec5b115	-0.38611665
183	0xbef08744	-0.469782
184	0xbd65d7b2	-0.056113906
185	0xbc8b32c5	-0.016991982
186	0x3e5b7147	0.2142993
187	0x3efcdfda	0.49389535
188	0x3ec2f61a	0.38078386
189	0x3e249bdb	0.16075079
190	0x3dabe9b3	0.08394184
191	0xbeb2c8f9	-0.34918955
192	0x3edeab43	0.43490037
193	0x3e43c8e3	0.19119601
194	0x3eec2c75	0.46127668
195	0xbdd78a56	-0.10524432
196	0xbeb39527	-0.35074732
197	0xbeca28e0	-0.3948431
198	0xbe4f4151	-0.2023976
199	0x3d2c5d86	0.04208138

decoder.layer0.bias f4 [20]
0	0x3edc3fa6	0.4301731
1	0xbeb344f6	-0.3501355
2	0xbe39cd0f	-0.1814463
3	0xbe5b637f	-0.21424673
4	0xbe7c3658	-0.24630105
5	0xbeea11f8	-0.45716834
6	0x3eab0894	0.33404982
7	0x3ee51cc7	0.44748518
8	0x3da1ce72	0.079007044
9	0xbe2d4fdd	-0.16924997
10	0xbd1f3e06	-0.03887751
11	0x3eb8f297	0.3612258
12	0xbe31c688	-0.1736089
13	0x3ddf253d	0.108957745
14	0xbec9ceee	-0.39415687
15	0x3ce5f38d	0.028070236
16	0xbe6ee516	-0.23329577
17	0x3eadeea7	0.3397114
18	0xbee29872	-0.44256932
19	0x3ecd39b6	0.40083092

decoder.final_layer.weight f4 [100, 20]
0	0x3e40a7e5	0.18814047
1	0x3d6f3bc0	0.05840659
2	0xbe0cc5be	-0.13747308
3	0xbe16f2bb	-0.14741032
4	0xbdd2b207	-0.10287862
5	0xbe999e0e	-0.300034
6	0x3e7d000a	0.24707046
7	0x3928f357	0.0001611238
8	0x3e7fd88d	0.24984951
9	0xbdbd427e	-0.09241198
10	0x3c0c2295	0.008553167
11	0x3cf56302	0.029954437
12	0xbea5c769	-0.323787
13	0x3dbaa470	0.09113395
14	0xbd59dc42	-0.05318857
15	0x3e8a5b1d	0.2702264
16	0xbd1bf08c	-0.0380712
17	0x3dca8030	0.09887731
18	0xbd89a053	-0.067200325
19	0x3e972944	0.2952367
20	0x3e57d4ab	0.2107722
21	0xbe7eb5dd	-0.24874063
22	0xbe37b506	-0.17940149
23	0x372f3798	1.0443757e-05
24	0xbe14c916	-0.14529833
25	0xbe8d3084	-0.27576077
26	0x3cbc58ba	0.022991527
27	0xbda125a8	-0.078685105
28	0x3dffd7f3	0.12492361
29	0xbd98d878	-0.07463163
30	0xbd86fa6b	-0.06590732
31	0x3dbc7ccb	0.0920349
32	0xbdb14fea	-0.086578205
33	0xbc3aa2e2	-0.011391373
34	0xbd8be501	-0.068307884
35	0xbbe22e60	-0.006902501
36	0xbe821f6f	-0.25414607
37	0x3e0d26be	0.1378431
38	0xbd28e7c5	-0.041236658
39	0x3cec7b7e	0.02886748
40	0x3e2758d0	0.16342473
41	0xbd3e107e	-0.046402447
42	0xbe6245b4	-0.22096902
43	0xbe5a302b	-0.21307437
44	0xbe86e5f0	-0.26347303
45	0x3bdef72d	0.006804368
46	0x3d06f776	0.03295084
47	0x3e693021	0.22772266
48	0x3e42f7bf	0.1903982
49	0xbe5296e5	-0.20565374
50	0xbe3f2f72	-0.18670443
51	0x3e51a297	0.2047218
52	0xbe383e93	-0.1799262
53	0xbd85e711	-0.06538213
54	0x3da802c1	0.0820365
55	0x3d0713f4	0.032978013
56	0xbc8de479	-0.017320858
57	0xbda7fbab	-0.08202299
58	0xbe3b13f9	-0.18269338
59	0x3e81fbb4	0.25387347
60	0x3c434541	0.011918367
61	0xbe75cd73	-0.24004154
62	0xbdc2fddd	-0.09521077
63	0x3d0d7bbd	0.034541834
64	0xbec3a15b	-0.38209042
65	0xbe805129	-0.2506192
66	0xbcbbbf87	-0.022918476
67	0x3e8fde9a	0.2809952
68	0x3e224dbe	0.15849969
69	0xbdf56eaa	-0.11983998
70	0xbe77827e	-0.24170873
71	0x3e93c9b6	0.2886483
72	0xbebfa702	-0.37432104
73	0x3e28ab81	0.16471674
74	0xbe9edff5	-0.3103024
75	0x3e4095e3	0.18807177
76	0xbcfb2b60	-0.030660331
77	0xbd36da74	-0.044641927
78	0xbe4251c3	-0.18976502
79	0x3eac6a0b	0.33674654
80	0x3db0d17b	0.08633705
81	0xbe82f680	-0.2557869
82	0x3d397beb	0.045284193
83	0xbc536b35	-0.012903978
84	0xbe81eec8	-0.25377488
85	0x3d2c109d	0.04200803
86	0xbc335068	-0.010944463
87	0x3e832dce	0.25620884
88	0x3dd35a8b	0.10320004
89	0xbe905058	-0.28186297
90	0xbec396f4	-0.38201106
91	0x3e868fd8	0.2628162
92	0xbea06357	-0.3132579
93	0x3c93b329	0.018029766
94	0x3d5b3104	0.05351354
95	0x3d70d98a	0.05880121
96	0xbe1a6b57	-0.1508001
97	0x3dc40488	0.09571177
98	0xbe60bee1	-0.21947815
99	0x3e89a515	0.2688376
100	0x3ebbeac4	0.3670255
101	0xbe280c3f	-0.16410922
102	0xbec279ac	-0.37983453
103	0xbd8cfef6	-0.068845674
104	0xbe1e75a4	-0.15474564
105	0xbdd28c35	-0.102806486
106	0x3e00873b	0.12551586
107	0x3ea23877	0.31683704
108	0x3ec0caf0	0.3765483
109	0xbe93befd	-0.2885665
110	0xbeb22931	-0.34797052
111	0x3e35f005	0.17767341
112	0xbeb92da1	-0.36167625
113	0x3d333aa4	0.043757096
114	0xbce25d41	-0.027632358
115	0x3e009b65	0.12559278
116	0xbde9cbcf	-0.114158265
117	0x3d098948	0.033578187
118	0xbe49d8f1	-0.19711663
119	0x3c960eb6	0.018317562
120	0xbbbf30ea	-0.0058346884
121	0xbdb60f35	-0.08889619
122	0xbd9735a3	-0.07383277
123	0xbe7b6414	-0.24549896
124	0x3d45c89c	0.04828702
125	0xbe819e6a	-0.25316173
126	0xbdc8f11d	-0.09811614
127	0x3dea023a	0.11426206
128	0x3e7a6a37	0.2445458
129	0xbe809a98	-0.25117946
130	0xbeb50f61	-0.35363296
131	0x3e9e5521	0.30924323
132	0xbdb96d3e	-0.090540394
133	0x3dc30959	0.09523267
134	0xbe0f71af	-0.1400821
135	0xbd5b949d	-0.053608526
136	0xbddbd424	-0.10733822
137	0xbd920adf	-0.0713098
138	0x3dc7b100	0.09750557
139	0x3ea2b8d8	0.3178165
140	0x3e9e3f41	0.30907634
141	0xbdac65a1	-0.08417822
142	0xbe888466	-0.26663512
143	0xbded54dd	-0.11588452
144	0xbda64cf2	-0.08120145
145	0xbe388202	-0.18018344
146	0x3ddaf752	0.10691704
147	0x3e9f4aea	0.31111842
148	0x3e086052	0.13317993
149	0xbe9475d7	-0.28996155
150	0xbdccb76b	-0.09995922
151	0x3e91d10c	0.28479803
152	0x3ce034e1	0.027368965
153	0x3d57d2c6	0.052691244
154	0xbabff5e2	-0.0014645422
155	0x3e0199d6	0.1265634
156	0xbdb77185	-0.08957199
157	0x3e0b4c7b	0.13603394
158	0xbe932807	-0.28741476
159	0x3e73f4be	0.2382383
160	0x3d1a1b50	0.037623703
161	0xbeacd21d	-0.33754054
162	0xbe1acdf7	-0.15117632
163	0xbead7c6e	-0.33883995
164	0xbe250b3d	-0.16117568
165	0x3d15ac82	0.03654147
166	0x3e2e29c3	0.17008118
167	0x3ea3e28d	0.32008782
168	0x3e749e01	0.23888399
169	0xbe942877	-0.28937122
170	0xbe73ef3d	-0.23821731
171	0x3e46f073	0.19427662
172	0x3c7be5ea	0.01537464
173	0x3e9fd3c3	0.3121625
174	0xbcdc1498	-0.026865289
175	0x3e8f45fd	0.27983084
176	0xbe613dce	-0.21996233
177	0x3dad31b7	0.08456748
178	0xbe8c7fa0	-0.2744112
179	0x3eb54fb7	0.3541238
180	0x3eb60d6a	0.3555711
181	0xbe8f2e04	-0.27964795
182	0xbebe818e	-0.37208217
183	0xbcb8aeee	-0.02254435
184	0xbec18d9c	-0.37803352
185	0xbdaa0032	-0.083008185
186	0x3e6be1dc	0.23035377
187	0xbd8f2d09	-0.06991012
188	0x3df2396b	0.11827358
189	0xbdf4bffd	-0.11950681
190	0xbe77128d	-0.2412817
191	0x3eae4fb1	0.34045175
192	0xbe95222f	-0.29127643
193	0x3e3d8ee3	0.18511538
194	0xbe96ead3	-0.29476032
195	0x3e780b38	0.2422303
196	0xbb9ceb22	-0.004788772
197	0xba129058	-0.0005590967
198	0xbe936819	-0.28790358
199	0x3e8b7c77	0.27243397
200	0x3ebdf0ec	0.3709787
201	0xbe5b0744	-0.2138949
202	0xbda0619d	-0.07831118
203	0xbe158009	-0.14599623
204	0xbec1d056	-0.3785426
205	0x3d8ffd3c	0.070307225
206	0x3d3a4a8a	0.045481242
207	0x3e12b0dd	0.1432528
208	0x3da12021	0.07867456
209	0xbec0d6e4	-0.3766395
210	0xbe87aab0	-0.26497412
211	0x3e587e47	0.21141921
212	0xbd938fb4	-0.072051436
213	0x3e2d5327	0.16926251
214	0x3d8e6586	0.06952958
215	0x3d38cf44	0.04511954
216	0xbcb6264e	-0.022235062
217	0x3eb2c7f7	0.34918186
218	0xbe46489c	-0.19363636
219	0x3e96f49e	0.29483503
220	0x3e23d0c4	0.15997607
221	0xbc1962b7	-0.009361914
222	0xbde2f6cc	-0.11082229
223	0x3da04a98	0.07826728
224	0xbe6fc86b	-0.23416297
225	0xbe7d9008	-0.24761975
226	0xbc8e9877	-0.017406685
227	0x3e9ae8b8	0.30255675
228	0x3e94dff7	0.29077122
229	0x3dc94b51	0.098288186
230	0xbe47af94	-0.19500571
231	0x3e25df70	0.16198516
232	0xbea40c9f	-0.3204088
233	0x3e9c28b1	0.30499795
234	0xbe31ddfc	-0.17369837
235	0x3cb1acf0	0.021688908
236	0xbe995924	-0.2995082
237	0xbd862e64	-0.06551817
238	0xbd3154a5	-0.043293614
239	0x3e3136f8	0.17306125
240	0xbc57d670	-0.0131736845
241	0xbe9d610c	-0.30738103
242	0xbe67d290	-0.22638917
243	0xbe80edf7	-0.25181553
244	0xbe0007fb	-0.12503044
245	0xbea7b2f9	-0.32753733
246	0x3b8aa833	0.0042314767
247	0xbc519c78	-0.012793653
248	0x3ddbb85e	0.107285246
249	0xbea1ed9d	-0.31626597
250	0xbe4e0268	-0.20118105
251	0x3dcff2dd	0.10153744
252	0xbe22ba4e	-0.15891382
253	0x3d2bb476	0.041920148
254	0x3c9d478f	0.01919916
255	0x3df33b1b	0.11876508

decoder.final_layer.bias f4 [100]
0	0x3dc134d2	0.09433903
1	0x3d4011a0	0.04689181
2	0x3e470829	0.19436707
3	0x3ce40bd7	0.027837677
4	0x3e0d5c6b	0.13804786
5	0x3e39d662	0.18148187
6	0x3e26175f	0.16219853
7	0xbe114d4f	-0.14189647
8	0xbd683259	-0.05668864
9	0x3e99beab	0.3002828
10	0x3e896554	0.2683512
11	0x3e46f61a	0.19429818
12	0xbc4e41c6	-0.012588924
13	0x3e1a794d	0.15085335
14	0x3e10c479	0.14137448
15	0x3ea1a4a3	0.3157092
16	0x3e3e8fe7	0.18609582
17	0x3beec563	0.007286714
18	0x3b16f002	0.002303124
19	0x3e77306f	0.2413957
20	0xbd8aa2a5	-0.06769303
21	0x3d808301	0.06274987
22	0x3e6a926e	0.22907421
23	0x3e48e14c	0.19617194
24	0x3e8bec4e	0.27328724
25	0xbd9c6b6c	-0.076376766
26	0xbd4ab64f	-0.04949027
27	0x3e839e47	0.25706694
28	0x3e96b52d	0.294351
29	0x3e6b5a43	0.22983651
30	0x3d956fb0	0.07296693
31	0x3d18176b	0.037131708
32	0xbdd9fc84	-0.10643867
33	0x3e8f5de9	0.28001335
34	0x3e8f8959	0.28034475
35	0x3ded2b6f	0.1158055
36	0x3e6f0560	0.23341894
37	0x3e99d78e	0.30047268
38	0xbdd8eb51	-0.10591758
39	0xbde3881e	-0.11109947
40	0xbdb3608d	-0.0875865
41	0x3dfa07ec	0.12208542
42	0x3e2aad33	0.16667633
43	0xbd52c9b4	-0.05146189
44	0x3e89af82	0.26891714
45	0x3d5e4428	0.054264218
46	0x3e2cff78	0.16894329
47	0x3d1a47a4	0.037665978
48	0x3d84e1cd	0.064883806
49	0x3e9ae52a	0.30252963
50	0x3d3da631	0.04630107
51	0xbca35ecb	-0.019942662
52	0xbb231a37	-0.0024887451
53	0x3e2dd1e7	0.16974603
54	0x3e119e4c	0.14220542
55	0x3e158be3	0.14604144
56	0x3d92580c	0.071457
57	0x3dccbdfd	0.09997175
58	0x3e958033	0.2919937
59	0xbc6b24d7	-0.014352045
60	0x3cc9c032	0.024627779
61	0x3d3b43e9	0.04571906
62	0x3e9738d2	0.29535538
63	0x3e8af841	0.27142528
64	0x3e41fe91	0.18944766
65	0x3cdc3e37	0.026885135
66	0x3d7788cb	0.06043319
67	0x3d7e3c7e	0.06206941
68	0x3e34f692	0.17672184
69	0x3e0687b4	0.13137704
70	0x3e79f5d2	0.2441018
71	0x3e596dcb	0.21233289
72	0x3e278398	0.16358793
73	0x3e1a18cc	0.15048522
74	0x3d43c63e	0.04779648
75	0xbdb5b10f	-0.08871662
76	0xbdb792dd	-0.08963559
77	0x3e442c6b	0.19157569
78	0x3d78f2a5	0.06077828
79	0x3d559c15	0.052150805
80	0xbc9ea4ed	-0.019365752
81	0x3cd07d48	0.025450364
82	0x3e808a67	0.25105593
83	0x3e85408b	0.26025805
84	0x3e144cae	0.14482376
85	0x3e21c657	0.15798317
86	0xbbbcea33	-0.0057652234
87	0x3ceae070	0.028671473
88	0x3dec0dae	0.11526047
89	0x3ea24cb4	0.31699145
90	0x3db0ad87	0.08626848
91	0x3e2a04a0	0.16603327
92	0x3e6bc4ae	0.23024246
93	0x3e5d8cbb	0.21635716
94	0xbc8929b6	-0.016743522
95	0x3db80101	0.089845665
96	0x3d5dd785	0.054160614
97	0x3e0847e6	0.13308677
98	0xbde692fd	-0.112585045
99	0x3e48a1c8	0.19592965
