Code/coda-pca-orig/coda/codes/model_weights.pth (torch_old, 22927 bytes, 10 tensors)

linear.weight f4 [6, 10]
0.16814128 -0.14932041 0.04530997 -0.14561762 0.28475064 0.13942407 0.10432619 -0.19046907
-0.14869155 -0.0968403 -0.07228711 0.007899017 -0.01691527 -0.19298755 0.024952792 -0.08770597
0.1535055 0.22500259 -0.066257484 -0.0838837 -0.22523981 -0.1684176 0.08479981 -0.15044332
-0.24938779 0.22849676 -0.0034274291 -0.21525058 0.1645355 0.29101363 0.12337233 -0.017572146
0.15322085 -0.1584979 0.24104634 0.25619033 0.290541 0.02755132 -0.14553303 0.11635456
-0.033727422 0.27575314 -0.29812944 0.016707335 0.036893126 0.008312998 0.16778634 -0.012771023
-0.19786409 0.1832843 0.04796347 -0.27286422 0.03573404 -0.09284205 -0.02651257 0.17243053
-0.30038744 0.060285106 0.216665 -0.18819617
00000000: 3a2d 2c3e 73e7 18be f296 393d c91c 15be
00000010: d6ca 913e 2fc5 0e3e f8a8 d53d 530a 43be
00000020: 9942 18be 3554 c6bd 440b 94bd e16a 013c
00000030: e491 8abc 879e 45be cc69 cc3c 309f b3bd
00000040: 8c30 1d3e 1467 663e 01b2 87bd 38cb abbd
00000050: 44a5 66be aa75 2cbe 86ab ad3d d00d 1abe
00000060: 835f 7fbe 0efb 693e b89e 60bb a66a 5cbe
00000070: fe7b 283e bdff 943e a2aa fc3d 76f3 8fbc
00000080: ede5 1c3e 464d 22be dad4 763e 612b 833e
00000090: cac1 943e 4eb3 e13c 9c06 15be 4d4b ee3d
000000a0: c425 0abd 842f 8d3e 6ca4 98be d2dd 883c
000000b0: 3f1d 173d 3e33 083c 2fd0 2b3e 8e3d 51bc
000000c0: e29c 4abe e1ae 3b3e 5875 443d dcb4 8bbe
000000d0: db5d 123d f923 bebd e430 d9bc a191 303e
000000e0: 62cc 99be 84ed 763d 6edd 5d3e 7fb6 40be

linear.bias f4 [6]
0.14121807 0.20856595 -0.057027455 0.084567204 -0.054343924 -0.26016814
00000000: 789b 103e 5092 553e 9f95 69bd 9231 ad3d
00000010: bc97 5ebd c234 85be

encoder.layer0.weight f4 [30, 100]
0.01207511 -0.062082242 0.0033829152 -0.050824292 0.099263564 0.020245768 0.012636847 -0.06488765
0.082586035 0.071725585 0.08035055 0.00939306 -0.00034194754 0.08997715 -0.08102229 -0.019899663
0.059935093 0.039200354 0.047168598 -0.018905334 0.047550607 0.019652676 0.03563312 0.030025292
-0.0795626 0.06909437 -0.07877042 -0.08230965 0.055356458 -0.08245694 0.06880228 0.082603894
-0.040954478 0.043806434 0.046819076 -0.026048781 0.111428685 -0.038572066 -0.016838178 0.03009089
0.055250328 0.005455635 0.0136974165 0.0071106534 0.018483238 -0.040805303 0.052431468 -0.08920938
0.020490723 0.002704891 0.0077310232 0.014676494 -0.011447774 -0.015516908 0.0385991 0.086578056
-0.045304213 -0.029165529 0.060045738 -0.074104816 0.07972675 -0.0029673683 -0.0354548 -0.0009991401
-0.009439307 -0.08454869 -0.07658981 0.05540887 0.0058492282 0.060944866 -0.023089755 0.051435377
-0.034713086 -0.01740162 0.024586733 -0.067910165 -0.087953895 0.056399863 0.08182209 -0.06746735
-0.0039298683 0.08485566 -0.08685966 0.08734687 -0.07807596 -0.0649533 0.0046467297 0.008318451
-0.025136339 0.085115135 0.038505524 0.022956718 -0.08551978 0.06009709 -0.06338644 -0.07496101
-0.024099989 -0.049741756 -0.07884042 0.016256725 -0.021759674 0.04328166 0.051654477 -0.0823636
-0.063602954 -0.044544 0.0065953005 0.07693576 -0.03637319 -0.011043661 -0.053917825 -0.041416574
0.059988447 0.06304758 -0.011769957 -0.029727234 0.01337727 0.1092408 -0.033960443 0.08541137
-0.049810484 0.038031537 -0.05643165 -0.073275745 0.022126336 0.047762375 0.0113830725 -0.029197102
0.0508653 0.08050858 -0.037040316 -0.02598285 0.0035428638 0.009406684 0.0850629 0.06658946
0.09443997 0.078919396 0.066764526 0.04338071 0.019370683 -0.013933328 -0.0471677 0.062151294
0.0435835 0.102421895 0.031328086 0.0925514 -0.03950054 0.058524475 0.03647928 -0.027461762
0.080424346 0.02971253 0.08282506 -0.07099094 0.01070551 -0.064956956 0.029112887 0.059351027
0.02468339 0.0036946726 0.041174404 0.0061150924 -0.065397225 0.023536682 -0.01723024 -0.03815904
0.021980159 0.0012000755 0.039457314 -0.013132455 0.08366921 -0.034617394 -0.05430643 0.018315956
-0.055583034 -0.0012449365 -0.067334644 0.041725595 0.076910794 -0.016905086 -0.061302543 0.017293362
-0.087901965 0.07358763 -0.0108606145 6.1421474e-06 -0.015997803 0.0003514674 0.05750815 0.002337572
0.057967376 -0.035505008 -0.03620981 -0.014757752 -0.0817438 -0.052648716 0.041849285 0.08276288
-0.017027956 0.04727409 0.068249926 0.014774646 -0.01773619 -0.022886308 -0.09352587 -0.06924601
0.05093284 -0.021576766 0.078239836 -0.06088676 -0.029432757 -0.020125894 -0.10309593 0.02902791
0.042628698 -0.04593817 0.082137674 -0.044721972 0.05664043 -0.016343132 -0.076255254 -0.049527973
0.074674524 -0.086622626 -0.011159999 0.086911894 0.020490853 -0.10312327 -0.10063021 -0.035531465
-0.061500113 -0.032941326 -0.07081665 0.040163472 -0.10501226 -0.017182423 -0.022497961 -0.05004322
-0.0663527 0.04279793 0.009001898 0.016277574 0.0148930065 -0.044324998 -0.09034872 0.07960334
0.06772089 -0.009201178 -0.037500855 0.012314623 -0.028603712 1.2790459e-26 0.0010700508 -0.036383796
00000000: afd6 453c f349 7ebd e6b3 5d3b 222d 50bd
00000010: b24a cb3d 74da a53c c70a 4f3c d1e3 84bd
00000020: de22 a93d dde4 923d d48e a43d 59e5 193c
00000030: 6c47 b3b9 f145 b83d 04ef a5bd 9e04 a3bc
00000040: 807e 753d 8d90 203d dc33 413d 5cdf 9abc
00000050: 6dc4 423d a6fe a03c 09f4 113d 9af7 f53c
00000060: b7f1 a2bd 5981 8d3d 6352 a1bd f691 a8bd
00000070: 74bd 623d 2fdf a8bd 36e8 8c3d 3b2c a93d
00000080: e2bf 27bd 606e 333d 5cc5 3f3d 4164 d5bc
00000090: b934 e43d befd 1dbd 38f0 89bc 2c81 f63c
000000a0: 2b4e 623d 2fc5 b23b 216b 603c 7c00 e93b
000000b0: 296a 973c 7623 27bd 61c2 563d 68b3 b6bd
000000c0: 29dc a73c 8a44 313b 8654 fd3b ad75 703c
000000d0: 728f 3bbc a13a 7ebc 171a 1e3d d64f b13d
000000e0: e990 39bd 8cec eebc 85f2 753d 44c4 97bd
000000f0: c747 a33d 2e78 42bb 0d39 11bd 94f5 82ba
00000100: 53a7 1abc dd27 adbd 1edb 9cbd 69f4 623d
00000110: e2aa bf3b 53a1 793d ba26 bdbc e7ad 523d
00000120: 4f2f 0ebd d88d 8ebc 1e6a c93c 7c14 8bbd
00000130: 2c21 b4bd 8b03 673d 5792 a73d 522c 8abd
00000140: 20c6 80bb cec8 ad3d 7ae3 b1bd eae2 b23d
00000150: 4ae6 9fbd 3c06 85bd 9843 983b 1d4a 083c
00000160: b9ea cdbc d850 ae3d f8b7 1d3d ba0f bc3c
00000170: ff24 afbd 5e28 763d c0d0 81bd 2885 99bd
00000180: 576d c5bc 03be 4bbd 1677 a1bd d32c 853c
00000190: 5841 b2bc 1c48 313d a593 533d 3fae a8bd
000001a0: 4442 82bd c573 36bd 641d d83b 7f90 9d3d
000001b0: 0efc 14bd 79f0 34bc f0d8 5cbd 6da4 29bd
000001c0: 72b6 753d 171f 813d c7d6 40bc 8786 f3bc
000001d0: 562c 5b3c a4b9 df3d 1b1a 0bbd 28ec ae3d
000001e0: 1406 4cbd f5c6 1b3d e024 67bd 9811 96bd
000001f0: 4a42 b53c 7ba2 433d 1180 3a3c c32e efbc
00000200: 2258 503d afe1 a43d 96b7 17bd fcd9 d4bc
00000210: 642f 683b 7e1e 1a3c 7535 ae3d 0e60 883d
00000220: be69 c13d 7ea0 a13d d7bb 883d f9af 313d
00000230: 44af 9e3c 9d48 64bc eb32 41bd 5b92 7e3d
00000240: 9d84 323d 92c2 d13d e151 003d 978b bd3d
00000250: 51cb 21bd 5cb7 6f3d 4c6b 153d 7df7 e0bc
00000260: 85b5 a43d b167 f33c 2fa0 a93d b363 91bd
00000270: 2a66 2f3c 2708 85bd 267e ee3c 101a 733d
00000280: d234 ca3c 5222 723b 7ea6 283d 1d61 c83b
00000290: fbee 85bd 00d0 c03c 6f26 8dbc a74c 1cbd
000002a0: bc0f b43c da4b 9d3a fe9d 213d 8229 57bc
000002b0: c35a ab3d f8ca 0dbd 6b70 5ebd 580b 963c
000002c0: 09ab 63bd 232d a3ba bfe6 89bd 75e8 2a3d
000002d0: 6883 9d3d 897c 8abc 6018 7bbd cfaa 8d3c
000002e0: f205 b4bd 1db5 963d b8f0 31bc a518 ce36
000002f0: d30d 83bc 2845 b839 aa8d 6b3d f331 193b
00000300: 336f 6d3d b36d 11bd bd50 14bd 80ca 71bc
00000310: 4b69 a7bd 2ea6 57bd 286a 2b3d 967f a93d
00000320: 367e 8bbc 7aa2 413d 9ec6 8b3d 5b11 723c
00000330: 7d4b 91bc 117c bbbc 7e8a bfbd dad0 8dbd
00000340: f49e 503d c2c1 b0bc 353c a03d 6564 79bd
00000350: f71c f1bc 0fdf a4bc f523 d3bd f1cb ed3c
00000360: 6e9b 2e3d aa29 3cbd cc37 a83d 632e 37bd
00000370: ccff 673d 08e2 85bc b72b 9cbd d8dd 4abd
00000380: f5ee 983d 3467 b1bd 6ed8 36bc ddfe b13d
00000390: 6fdc a73c 4b32 d3bd 3617 cebd 7189 11bd
000003a0: 8be7 7bbd 7ced 06bd 5208 91bd 7482 243d
000003b0: ab10 d7bd 27c2 8cbc a54d b8bc 1ffa 4cbd
000003c0: ede3 87bd e24c 2f3d b27c 133c 8c58 853c
000003d0: cc01 743c 218e 35bd c008 b9bd 1307 a33d
000003e0: 40b1 8a3d 8ac0 16bc 7f9a 19bd 46c3 493c
000003f0: 5552 eabc 5557 7d14 f240 8c3a 2d07 15bd

encoder.layer0.bias f4 [30]
-0.023875922 0.08020331 0.06411737 0.09464157 0.027191523 0.07854481 0.044744216 -0.079232246
0.048808474 0.07314727 -0.061471444 -0.05631215 -0.06446871 -0.09854978 -0.07720426 -0.10319437
0.002980829 0.054514136 -0.09637961 0.09474459 0.04204495 -0.09287168 0.0013478365 -0.060289543
-0.069337785 0.05569903 0.08721091 -0.057078473 -0.08383292 -0.074088
00000000: 7097 c3bc a241 a43d f84f 833d 70d3 c13d
00000010: c2c0 de3c 1adc a03d b645 373d 8444 a2bd
00000020: 65eb 473d 3cce 953d 7bc9 7bbd 92a7 66bd
00000030: 2c08 84bd 78d4 c9bd 441d 9ebd 9257 d3bd
00000040: 035a 433b 374a 5f3d ac62 c5bd 7409 c23d
00000050: 5337 2c3d 8233 bebd e3a9 b03a 2bf2 76bd
00000060: f800 8ebd ab24 643d a29b b23d 1ecb 69bd
00000070: 98b0 abbd 73bb 97bd

encoder.final_layer.weight f4 [10, 30]
0.17680496 0.10418538 -0.04647122 -0.14597486 0.15480475 -0.10923511 -0.009887658 0.13334204
0.019870926 -0.17548867 -0.052444406 0.039432343 0.1662359 0.10791654 -0.09669857 0.002065013
-0.13119456 -0.004654864 0.08616536 -0.10514765 0.1669708 -0.16844645 0.12566267 -0.16117547
-0.17652407 -0.03876452 -0.14308909 -0.15380439 -0.09424081 -0.056010213 -0.16937138 0.053414404
0.16309986 -0.033559255 -0.12196904 0.14114937 -0.022933992 -0.16020598 -0.06759033 0.15804435
0.08007476 -0.076905884 -0.020734306 0.18607025 -0.076786436 -0.11395533 0.08873802 -0.03186474
-0.115368165 0.1396602 0.07432421 0.17292555 -0.108589634 0.13786699 0.09601569 0.04900494
-0.18072215 0.18505664 0.16214088 -0.016903732 0.020034635 0.009604857 -0.17023835 -0.047833685
-0.09203559 0.14506373 -0.1183963 -0.15899798 -0.02969959 0.04410325 -0.12281034 0.06962986
-0.08088381 0.13675472 -0.10336052 0.16631451 -0.12863691 0.014582723 -0.05920547 -0.05969861
0.077112816 0.031196438 0.035614118 -0.16919705 -0.0606278 0.13821457 0.09451504 -0.035365734
-0.078379534 -0.15630719 0.027044848 0.18647103 0.12791868 0.078356974 0.0736029 0.1743798
-0.1787267 0.024039993 0.038891617 0.17779694 0.13392024 0.008829374 0.056487825 0.1567173
-0.13588728 0.08735426 0.08431136 -0.15557559 -0.03968515 0.074365325 -0.086234584 0.08222595
0.1815605 -0.18075107 0.07738364 -0.17483348 0.16228887 0.055333126 -0.12517044 -0.14204383
-0.14952452 0.09914076 -0.12855358 -0.044048104 0.13761675 0.03373198 -0.1511093 0.14738569
0.16255897 -0.11559019 0.047291465 -0.046989344 0.055450447 0.12649676 0.13077033 -0.00015821896
-0.12677756 -0.089202076 -0.16874056 -0.043889955 -0.09519007 0.0026923076 0.08036538 0.034948267
-0.14785643 -0.10987283 0.09265706 -0.17139664 0.028551657 -0.17828642 -0.16487063 0.029804155
0.067976974 -0.07831848 0.16075578 -0.060503487 -0.11654976 0.027567614 0.10185383 -0.09251551
0.0103410045 0.084544405 0.14299648 0.118091136 -0.11478055 0.17332426 -0.17358726 0.096320696
0.08562371 -0.08314439 0.032327235 0.15932332 0.031485833 0.052240707 0.04126162 -0.17453292
-0.14613244 -0.09513359 0.16060376 -0.0423915 0.102780856 0.10120829 -0.059054818 0.10401754
0.09302365 -0.05005591 0.016756494 -0.112637065 -0.16405697 0.17599706 -0.022704508 0.15987709
-0.07085614 -0.17907001 0.02737282 -0.09751015 -0.08941936 -0.13954802 -0.11865746 0.041356683
0.12377421 -0.067975536 -0.006948054 -0.024801694 -0.0043676025 -0.003806927 0.1602471 -0.011314533
-0.12904973 0.03907641 -0.112021096 -0.14962332 0.026619349 0.030780632 0.11497594 -0.14376652
0.055633746 0.018292367 0.18555789 0.008529277 0.0068992516 -0.16920008 -0.11884998 0.11091467
0.01833599 0.05802429 -0.1386317 0.13012075 -0.048027996 -7.449297e-05 0.052110575 0.02328435
0.07313413 -0.05274986 -0.090854056 0.098543204 -0.052695636 -0.11435254 0.059846573 -0.16827574
0.00736257 0.09237057 -0.15864156 0.12518902 -0.18024346 0.12547575 0.1036492 0.036484756
0.17082377 0.1627621 0.022496697 0.13793577 -0.046694696 -0.027812967 -0.06696669 0.06403771
00000000: 5c0c 353e 255f d53d 9b58 3ebd 6f7a 15be
00000010: 2385 1e3e a8b6 dfbd d8ff 21bc d18a 083e
00000020: 5ac8 a23c 4db3 33be f2cf 56bd cf83 213d
00000030: be39 2a3e 5903 dd3d e609 c6bd 2b55 073b
00000040: de57 06be d487 98bb 7777 b03d a757 d7bd
00000050: 65fa 2a3e 3a7d 2cbe b7ad 003e 2f0b 25be
00000060: bac2 34be 8cc7 1ebd f285 12be e67e 1dbe
00000070: 5301 c1bd f76a 65bd b16f 2dbe 10c9 5a3d
00000080: a603 273e 6e75 09bd e7ca f9bd 7689 103e
00000090: 11e0 bbbc 090d 24be cd6c 8abd 61d6 213e
000000a0: 3cfe a33d d580 9dbd feda a9bc 3389 3e3e
000000b0: 3542 9dbd 6961 e9bd 47bc b53d 9a84 02bd
000000c0: 2546 ecbd 1503 0f3e 4b37 983d 6513 313e
000000d0: 3e64 debd 012d 0d3e e0a3 c43d 67b9 483d
000000e0: 3a0f 39be 7d7f 3d3e 4208 263e b279 8abc
000000f0: ad1f a43c b15d 1d3c f652 2ebe 41ed 43bd
00000100: 287d bcbd 968b 143e c279 f2bd 5ed0 22be
00000110: 8e4c f3bc 9ca5 343d fd83 fbbd 1a9a 8e3d
00000120: 69a6 a5bd 6e09 0c3e aeae d3bd 5a4e 2a3e
00000130: 65b9 03be 60ec 6e3c 6f81 72bd 8886 74bd
00000140: 53ed 9d3d ac8f ff3c 1ce0 113d fe41 2dbe
00000150: db54 78bd 1f88 0d3e 1a91 c13d a9db 10bd
00000160: 7385 a0bd fe0e 20be 288d dd3c 43f2 3e3e
00000170: 1dfd 023e 9f79 a03d 1ebd 963d 9e90 323e
00000180: 2204 37be 85ef c43c d14c 1f3d 6710 363e
00000190: 6322 093e 14a9 103c c75f 673d 807a 203e
000001a0: 0926 0bbe cae6 b23d 6fab ac3d 354f 1fbe
000001b0: e58c 22bd d94c 983d c29b b0bd 1466 a83d
000001c0: ffea 393e cf16 39be 507b 9e3d 8c07 33be
000001d0: 0e2f 263e fda4 623d ae2c 00be f073 11be
000001e0: f51c 19be 500a cb3d 8da3 03be c96b 34bd
000001f0: 68eb 0c3e 8b2a 0a3d 65bc 1abe 46ec 163e
00000200: dc75 263e 8dba ecbd b2b4 413d e677 40bd
00000210: 0220 633d 5e88 013e a8e8 053e 94e7 25b9
00000220: fad1 01be 94af b6bd 53ca 2cbe f4c5 33bd
00000230: 03f3 c2bd 6d71 303b 9b96 a43d ea25 0f3d
00000240: ad67 17be 0205 e1bd fcc2 bd3d 9a82 2fbe
00000250: 2ae5 e93c b790 36be d9d3 28be d827 f43c
00000260: 8337 8b3d 7065 a0bd 2a9d 243e 81d2 77bd
00000270: a4b1 eebd 7ad5 e13c be98 d03d c678 bdbd
00000280: 516d 293c 9e25 ad3d ab6d 123e c4d9 f13d
00000290: 1112 ebbd ea7b 313e dcc0 31be c943 c53d
000002a0: 7c5b af3d 9b47 aabd 9069 043d a725 233e
000002b0: 4af7 003d 5afa 553d f201 293d c2b8 32be
000002c0: bea3 15be 66d5 c2bd 5075 243e b6a2 2dbd
000002d0: c57e d23d 4b46 cf3d 77e3 71bd 2607 d53d
000002e0: 2f83 be3d 6d07 4dbd ea44 893c 43ae e6bd
000002f0: 8dfe 27be 9338 343e cefe b9bc d2b6 233e
00000300: 061d 91bd 215e 37be f73c e03c 67b3 c7bd
00000310: 7f21 b7bd ade5 0ebe af02 f3bd a065 293d
00000320: 557d fd3d c236 8bbd 80ac e3bb ec2c cbbc
00000330: 1b1e 8fbb a37d 79bb d117 243e 9760 39bc
00000340: 9d25 04be 960e 203d 516b e5bd db36 19be
00000350: d210 da3c aa27 fc3c 8178 eb3d 8837 13be
00000360: 36e0 633d e0d9 953c e302 3e3e 61be 0b3c
00000370: 1e13 e23b c942 2dbe 9e67 f3bd 3b27 e33d
00000380: 5c35 963c e1aa 6d3d 78f5 0dbe 603e 053e
00000390: 01b9 44bd 1c39 9cb8 e671 553d d2be be3c
000003a0: 59c7 953d 3d10 58bd b111 babd 05d1 c93d
000003b0: 61d7 57bd aa31 eabd ae21 753d 7a50 2cbe
000003c0: b741 f13b c82c bd3d ef72 22be 8d31 003e
000003d0: be91 38be b77c 003e 0846 d43d 0a71 153d
000003e0: 6dec 2e3e 1cab 263e fe4a b83c 093f 0d3e
000003f0: f042 3fbd 05d8 e3bc d525 89bd 3426 833d

encoder.final_layer.bias f4 [10]
0.18182051 -0.11460961 -0.1507235 -0.0018887862 -0.0022819256 0.10208231 0.109044954 0.027962279
-0.120636076 0.16386195
00000000: 282f 3a3e 71b8 eabd 4357 1abe 2691 f7ba
00000010: 5c8c 15bb 8810 d13d f652 df3d 2611 e53c
00000020: 0c10 f7bd 6dcb 273e

decoder.layer0.weight f4 [30, 10]
0.04303419 -0.2847898 0.017650222 0.17927177 0.094106115 -0.15996204 0.124164075 -0.21428543
-0.28240198 0.2832948 0.06090202 0.21629648 0.2018555 -0.19936125 -0.024314096 -0.314031
0.16191956 -0.06636286 -0.0018068175 -0.21475795 0.27289346 -0.18084164 -0.05634305 0.18306918
0.061587002 0.13573453 -0.2726052 -0.19771554 0.02805532 0.16906896 -0.30125597 -0.07914087
0.31309944 -0.15065978 -0.2402098 0.20164974 -0.14020485 -0.024585903 -0.10191959 -0.24386035
0.2308984 -0.09012729 -0.1985487 -0.16923454 -0.23738827 0.17712279 -0.079116836 0.035960726
-0.07904379 0.20020099 0.21232796 0.21686444 0.006182149 -0.108916074 -0.13465586 -0.02314164
-0.18010016 -0.22328998 0.24340439 0.10697211 -0.25184178 0.167801 -0.12859361 0.28880224
-0.19106926 -0.2591721 -0.17596363 0.25105536 -0.22719876 0.25404337 -0.05631581 0.24938393
0.15896685 -0.009280471 -0.29369554 -0.22755252 0.28328517 0.24656129 -0.19674572 -0.24448101
-0.19411318 -0.25936517 0.15578504 -0.23713034 -0.28245473 -0.13131735 0.17536262 0.04711704
-0.21482179 -0.15099068 -0.27250126 -0.31411985 0.017594311 -0.104390554 -0.26677066 -0.08394484
-0.061381567 0.12286465 -0.28831923 -0.27578956 0.15442047 -0.0017404023 0.187752 -0.1303119
-0.18422815 0.06013484 0.1248762 0.02611451 0.017110799 0.012196573 0.24435288 0.2061547
-0.26965636 -0.08878866 0.20424275 -0.11761985 0.10934489 0.12198398 -0.014218903 0.07194203
0.1533247 0.09534418 -0.23267813 0.05106095 -0.24508387 0.12396685 -0.24112196 0.24695371
-0.0939976 -0.10847456 0.057471182 -0.050735086 0.26447132 0.087001726 0.25152624 -0.13651344
0.3019036 0.08316425 -0.2764202 -0.2255048 0.23666567 -0.12729602 0.120866396 0.12863198
-0.20127119 0.022964628 -0.20413314 0.19748509 -0.26167905 -0.1299106 -0.230317 -0.15213546
-0.2574542 -0.10597406 -0.13781625 -0.026448356 -0.020319443 0.20177576 -0.011411354 0.22187214
-0.21020296 -0.10283625 -0.2929868 0.08525055 -0.26049364 -0.071823455 -0.21591076 0.2670881
-0.29539037 0.29851088 0.07261372 -0.17703155 0.27297562 0.2425828 0.13148348 0.016935011
-0.13298364 -0.2637183 0.23049656 0.110866986 -0.099156916 -0.30681178 7.9150566e-05 -0.2161483
-0.3126038 -0.09161829 -0.10351875 -0.2850129 0.003918885 0.06730836 -0.16753057 -0.29867968
0.29892755 0.053344723 0.27981704 -0.25942665 -0.108430386 0.25842798 0.22051272 -0.029005546
-0.0017374044 -0.16216035 -0.19545521 0.31846148 0.18764614 0.027788868 -0.052695367 0.1875833
0.062339474 0.26254642 -0.00364247 -0.2657576 -0.24637161 -0.22993664 0.22754395 -0.076938875
-0.25344846 -0.23482306 -0.10298148 0.31021738 0.12762856 -0.11486935 0.09286529 0.02376625
0.27922764 -0.10984271 -0.23530482 0.28935215 0.08224694 -0.10009014 -0.09341471 0.25129876
0.31153733 0.06386332 -0.26731804 0.29332715 -0.2708167 -0.26073217 0.15709575 -0.25993112
0.053339463 -0.2899429 -0.27680632 0.08712135 0.01424115 0.18658963 -0.06874613 -0.017234849
0.22408488 0.30194497 0.29320553 -0.00042617612 0.102238566 0.22405986 -0.030782772 -0.13271411
00000000: 9e44 303d f8cf 91be 3397 903c 0593 373e
00000010: b5ba c03d 17cd 23be bc49 fe3d a46d 5bbe
00000020: fe96 90be 040c 913e 6674 793d d37c 5d3e
00000030: 35b3 4e3e 5b25 4cbe 5b2e c7bc acc8 a0be
00000040: 3ece 253e 40e9 87bd bcd2 ecba 82e9 5bbe
00000050: b1b8 8b3e 8d2e 39be f8c7 66bd 7d76 3b3e
00000060: a742 7c3d fefd 0a3e e992 8bbe f175 4abe
00000070: 45d4 e53c 6a20 2d3e 393e 9abe 9c14 a2bd
00000080: 924e a03e 8f46 1abe 8ff9 75be 457d 4e3e
00000090: dc91 0fbe 6068 c9bc 38bb d0bd 87b6 79be
000000a0: a170 6c3e a894 b8bd 5a50 4bbe d24b 2dbe
000000b0: e915 73be ad5f 353e 0208 a2bd 8e4b 133d
000000c0: b6e1 a1bd 7d01 4d3e 806c 593e b611 5e3e
000000d0: a093 ca3b 640f dfbd 3ae3 09be 8993 bdbc
000000e0: 2d6c 38be 21a6 64be 003f 793e 3214 db3d
000000f0: 68f1 80be 06d4 2b3e 0bae 03be e3dd 933e
00000100: a9a7 43be 35b2 84be cf2f 34be 548a 803e
00000110: cba6 68be f911 823e 68ab 66bd 805e 7f3e
00000120: 35c8 223e 1e0d 18bc 435f 96be 8703 69be
00000130: c10a 913e 907a 7c3e b677 49be 3b59 7abe
00000140: 9bc5 46be 83cb 84be 1d86 1f3e 4cd2 72be
00000150: e89d 90be 0e78 06be 4292 333e ccfd 403d
00000160: 3efa 5bbe 4d9d 1abe 4985 8bbe 51d4 a0be
00000170: f221 903c b7ca d5bd 2a96 88be 46eb abbd
00000180: 3d6b 7bbd 76a0 fb3d 949e 93be 4a34 8dbe
00000190: 6620 1e3e 361e e4ba 0f42 403e 7c70 05be
000001a0: 4ea6 3cbe f34f 763d 18bf ff3d 19ee d53c
000001b0: f22b 8c3c 23d4 473c a437 7a3e 381a 533e
000001c0: 6610 8abe d4d6 b5bd 0325 513e ade2 f0bd
000001d0: 37f0 df3d bdd2 f93d 67f6 68bc 5856 933d
000001e0: 2601 1d3e cf43 c33d 2d43 6ebe 4925 513d
000001f0: 44f7 7abe 55e2 fd3d ade8 76be 6fe1 7c3e
00000200: d081 c0bd e927 debd e766 6b3d 98cf 4fbd
00000210: c968 873e f62d b23d 0cc8 803e 2eca 0bbe
00000220: 1c93 9a3e 0552 aa3d f386 8dbe bbea 66be
00000230: 7c58 723e e359 02be cd88 f73d 1ab8 033e
00000240: 091a 4ebe 5120 bc3c 4708 51be 8839 4a3e
00000250: ccfa 85be 4907 05be 38d8 6bbe 66c9 1bbe
00000260: 09d1 83be ee08 d9bd b41f 0dbe 39aa d8bc
00000270: f674 a6bc 4e9e 4e3e b0f6 3abc 7332 633e
00000280: 723f 57be d09b d2bd 5e02 96be d797 ae3d
00000290: 6c5f 85be 2d18 93bd b617 5dbe c5bf 883e
000002a0: 683d 97be 6bd6 983e 81b6 943d c247 35be
000002b0: 76c3 8b3e a067 783e 9ba3 063e 4bbb 8a3c
000002c0: dd2c 08be 1606 87be 4a07 6c3e 3b0e e33d
000002d0: c812 cbbd 6f16 9dbe a3fd a538 fb55 5dbe
000002e0: 9b0d a0be 5fa2 bbbd a301 d4bd 36ed 91be
000002f0: fd69 803b f7d8 893d 228d 2bbe 8bec 98be
00000300: 080d 993e ff7f 5a3d 2e44 8f3e 92d3 84be
00000310: c010 debd ac50 843e 16ce 613e 0a9d edbc
00000320: 9eb9 e3ba 5d0d 26be 6925 48be 620d a33e
00000330: 4f26 403e 7ba5 e33c 19d7 57bd d615 403e
00000340: ad57 7f3d 7c6c 863e 82b6 6ebb 6111 88be
00000350: d748 7cbe 8374 6bbe 4801 693e 2192 9dbd
00000360: ffc3 81be 7575 70be f4e7 d2bd d0d4 9e3e
00000370: 10b1 023e 9f40 ebbd 2830 be3d 70b1 c23c
00000380: edf6 8e3e 37f5 e0bd bff3 70be f725 943e
00000390: 1571 a83d 0ffc ccbd 3650 bfbd 3baa 803e
000003a0: d281 9f3e c6ca 823d e9dd 88be fa2e 963e
000003b0: 7da8 8abe b07e 85be b5dd 203e b115 85be
000003c0: 7b7a 5a3d 6573 94be 8fb9 8dbe ae6c b23d
000003d0: b653 693c 5a11 3f3e c5ca 8cbd 1930 8dbc
000003e0: 8276 653e 8898 9a3e 091f 963e 6470 dfb9
000003f0: 7462 d13d f36f 653e 272c fcbc 35e6 07be

decoder.layer0.bias f4 [30]
-0.1875284 -0.18664882 0.113048054 0.08171668 -0.26464036 -0.24007519 -0.045599964 -0.13294889
-0.13190907 -0.23039909 0.078381576 -0.32174373 0.028710024 0.2766801 0.07180626 -0.17815974
-0.11211768 0.2180133 -0.26015007 -0.035006326 -0.11647567 -0.06808259 -0.10977331 -0.11182524
-0.001522584 0.06557 0.023499465 0.25461206 0.1942682 0.008789517
00000000: 7207 40be de20 3fbe bd85 e73d 135b a73d
00000010: f17e 87be 45d6 75be 07c7 3abd c123 08be
00000020: 2c13 07be bded 6bbe 8586 a03d 98bb a4be
00000030: 4931 eb3c 04a9 8d3e 290f 933d 826f 36be
00000040: f49d e5bd e13e 5f3e 6432 85be cb62 0fbd
00000050: cc8a eebd e36e 8bbd d4d0 e0bd a204 e5bd
00000060: 7191 c7ba 9049 863d f381 c03c 835c 823e
00000070: 3eee 463e e801 103c

decoder.final_layer.weight f4 [50, 30]
0.12006018 -0.055495456 0.16948771 -0.011400029 0.1281258 -0.13230537 -0.019424403 0.13776007
0.13836275 0.16630419 0.062383633 0.040100306 -0.046694335 -0.077151105 0.018495807 -0.16153419
-0.10094152 -0.043194722 0.08321706 -0.014189967 -0.038323782 -0.0151809715 0.17097116 -0.05326044
0.14370658 0.0064831898 0.10943186 0.04301898 -0.16680613 -0.15947111 0.11997403 -0.04549454
0.01646811 -0.18796176 0.1399515 -0.16838324 -0.08833077 0.11207554 0.13552092 0.12213326
0.17895217 -0.15516838 -0.14642172 0.06596519 0.03886118 0.073844075 -0.056147974 0.037925787
-0.17384589 -0.13843854 0.059749734 0.078474544 0.0123017505 -0.104982 0.12266436 0.07308466
-0.11953702 0.17828229 0.19204338 -0.106894016 0.12995085 0.119321786 0.08549821 0.075666174
0.08105924 -0.17461146 0.060332138 -0.027458807 0.15140319 -0.14630498 -0.1572359 0.10911828
0.07154373 -0.06514689 0.070578545 -0.09307826 -0.011640369 0.107315734 0.09952095 0.15122001
0.03877768 -0.09353582 0.10113201 -0.09835702 -0.0903179 -0.14031784 -0.15410115 0.029661914
-0.09739094 0.06854758 0.0752153 0.11250894 -0.13433403 -0.0447668 0.022064146 0.15678492
0.060806647 -0.11868363 -0.11761145 -0.19082999 0.10855622 0.10430944 -0.052693248 0.12618569
0.18979084 0.01824101 0.060523577 0.037290893 -0.14324598 -0.0706524 -0.10033677 -0.0896989
-0.14544632 -0.028249685 0.06870117 -0.101490766 -0.023655975 0.050668217 -0.07615724 0.01624104
-0.09146011 -0.06082237 -0.04058592 0.03513118 0.124552526 -0.08482339 -0.13870843 -0.028606871
0.13866104 0.17233482 -0.17201348 -0.06382935 0.061866533 -0.14027898 -0.047997087 -0.024477769
-0.07870595 -0.01905874 0.10379675 -0.063399576 0.15353161 0.014657037 -0.028812805 -0.09196406
0.019720325 0.03166157 0.01935144 0.058870967 0.19005366 0.025687985 -0.15495479 -0.05630936
0.07572213 -0.10227882 0.09294187 -0.073376276 0.06493192 -0.095512375 0.16507784 0.006537494
-0.055148777 -0.048275515 0.013279979 -0.05553408 -0.15679154 -0.17437024 -0.009627422 -0.0423142
-0.07927847 0.11227666 0.15232193 0.010080782 -0.018200066 -0.1330314 0.026281947 0.015376231
0.06060508 -0.06182472 0.13517068 0.12062152 -0.16967745 0.08560613 -0.031532783 0.12731187
0.04648958 0.0453901 0.15859911 -0.009627937 0.017018313 0.00035335275 0.15571769 0.024914255
-0.04891673 0.11503788 -0.0962032 0.14086998 0.036164522 0.011907123 0.046288464 0.050437506
0.0736457 -0.12405655 -0.10889005 0.10753781 0.13711087 0.17041212 -0.0273366 0.07158257
0.18972257 0.10681034 0.07993012 -0.0113119325 0.057667654 -0.100120395 0.06786711 -0.09673332
0.099854566 0.10237867 0.011804094 0.04292757 -0.16199185 -0.08586753 -0.10625889 -0.04860394
-0.0659721 0.06287862 0.14145717 -0.14191504 0.06874143 0.06174623 -0.09081688 0.11582793
-0.082201146 -0.10051315 -0.0636839 0.038608182 -0.022726908 0.12505987 -0.11110435 0.10877293
0.04127853 -0.1718877 -0.0917058 -0.15109767 0.059310198 -0.16889225 -0.039754927 0.11898139
-0.0032198227 0.14497253 0.13496526 0.054277148 0.12329469 -0.04221695 -0.14326216 0.10364002
00000000: 1de2 f53d 344f 63bd 308e 2d3e 30c7 3abc
00000010: 6933 033e 0f7b 07be ed1f 9fbc fa10 0d3e
00000020: f7ae 0d3e a54b 2a3e fb85 7f3d 3840 243d
00000030: 8f42 3fbd 6601 9ebd 8584 973c 3869 25be
00000040: 6dba cebd f3ec 30bd b56d aa3d 097d 68bc
00000050: 66f9 1cbd 9cb9 78bc 1013 2f3e 9e27 5abd
00000060: d127 133e f070 d43b d01d e03d ac34 303d
00000070: 3acf 2abe 654c 23be f2b4 f53d 7c58 3abd
00000080: 21e8 863c 0c79 40be 724f 0f3e a86c 2cbe
00000090: c3e6 b4bd dc87 e53d ffc5 0a3e 0121 fa3d
000000a0: 3d3f 373e 76e4 1ebe 93ef 15be c218 873d
000000b0: e72c 1f3d 903b 973d 6bfb 65bd 1258 1b3d
000000c0: a804 32be d5c2 0dbe 23bc 743d 43b7 a03d
000000d0: 488d 493c ce00 d7bd 7437 fb3d 69ad 953d
000000e0: d3cf f4bd a28f 363e 05a7 443e 40eb dabd
000000f0: d611 053e fb5e f43d af19 af3d def6 9a3d
00000100: 6302 a63d 59cd 32be d51e 773d 4bf1 e0bc
00000110: 7009 1b3e f9d0 15be 7302 21be 6879 df3d
00000120: 8585 923d bc6b 85bd 7c8b 903d d19f bebd
00000130: 3fb7 3ebc 5ac8 db3d a4d1 cb3d 6bd9 1a3e
00000140: 58d5 1e3d b58f bfbd 4d1e cf3d 686f c9bd
00000150: 97f8 b8bd 7baf 0fbe b1cc 1dbe 8bfd f23c
00000160: e774 c7bd ac62 8c3d 7b0a 9a3d 166b e63d
00000170: dc8e 09be 645d 37bd debf b43c 3a8c 203e
00000180: 6410 793d 6710 f3bd 46de f0bd f068 43be
00000190: b952 de3d 30a0 d53d e0d4 57bd d236 013e
000001a0: 8858 423e 2c6e 953c 92e7 773d 56be 183d
000001b0: 13af 12be 35b2 90bd 5d7d cdbd 0fb4 b7bd
000001c0: e1ef 14be e26b e7bc 33b3 8c3d 64da cfbd
000001d0: 2dca c1bc 7a89 4f3d 54f8 9bbd ee0b 853c
000001e0: 704f bbbd e120 79bd 6c3d 26bd b6e5 0f3d
000001f0: 6515 ff3d e3b7 adbd 9509 0ebe f558 eabc
00000200: 29fd 0d3e 8a78 303e 4d24 30be f6b8 82bd
00000210: c367 7d3d 4ba5 0fbe 9898 44bd 9a85 c8bc
00000220: 9630 a1bd 1321 9cbc 6493 d43d a3d7 81bd
00000230: 6437 1d3e 1224 703c d508 ecbc a757 bcbd
00000240: 858c a13c 90af 013d e986 9e3c af22 713d
00000250: 6d9d 423e 9c6f d23c 78ac 1ebe a5a4 66bd
00000260: 3414 9b3d 8f77 d1bd 4f58 be3d 4d46 96bd
00000270: 07fb 843d fe9b c3bd 2a0a 293e 7938 d63b
00000280: afe3 61bd 8cbc 45bd 4594 593c b477 63bd
00000290: f68d 20be 1d8e 32be 56bc 1dbc a851 2dbd
000002a0: c05c a2bd 4ef1 e53d 48fa 1b3e dd29 253c
000002b0: 4e18 95bc 6239 08be 3d4d d73c 96ec 7b3c
000002c0: 083d 783d eb3b 7dbd 2f6a 0a3e 6a08 f73d
000002d0: edbf 2dbe 4452 af3d 8528 01bd 0b5e 023e
000002e0: dc6b 3e3d f8ea 393d ce67 223e 7fbe 1dbc
000002f0: fd69 8b3c 3442 b939 7574 1f3e fb18 cc3c
00000300: e95c 48bd fb98 eb3d 2f06 c5bd 3840 103e
00000310: 4021 143d 1816 433c f998 3d3d 8f97 4e3d
00000320: 8fd3 963d 5c11 febd bf01 dfbd c93c dc3d
00000330: cb66 0c3e 8480 2e3e 01f1 dfbc e299 923d
00000340: a246 423e 61bf da3d 67b2 a33d af55 39bc
00000350: eb34 6c3d ec0b cdbd e9fd 8a3d 1e1c c6bd
00000360: 8d80 cc3d e8ab d13d f565 413c d2d4 2f3d
00000370: 31e1 25be 51db afbd 439e d9bd ed14 47bd
00000380: 611c 87bd 82c6 803d 26da 103e 2d52 11be
00000390: 4fc8 8c3d 9de9 7c3d 33fe b9bd 3237 ed3d
000003a0: 1359 a8bd d7d9 cdbd b46c 82bd 9d23 1e3d
000003b0: c82d babc b20f 003e ad8a e3bd 58c4 de3d
000003c0: ad13 293d 5403 30be 40d0 bbbd 59b9 1abe
000003d0: 40ef 723d 17f2 2cbe 10d6 22bd 84ac f33d
000003e0: a903 53bb ae73 143e 5534 0a3e b751 5e3d
000003f0: ed81 fc3d aeeb 2cbd 51b3 12be 3841 d43d

decoder.final_layer.bias f4 [50]
-0.14832577 0.062254578 0.09105515 -0.07934807 0.06008389 -0.06686935 0.172678 0.14704531
-0.08507945 -0.009519597 0.12825173 0.004802028 -0.023758817 -0.083224826 -0.1086734 -0.063934654
-0.14605679 0.17989874 -0.11927093 0.0521782 -0.049664613 -0.13735448 -0.050859377 0.019644989
0.18109807 0.08886977 -0.049292363 0.16560763 -0.039993666 0.015879167 0.08923414 -0.1143373
-0.03532737 0.06555201 -0.009119163 -0.09170223 0.16344541 -0.01480693 0.15196404 -0.024025701
0.13890845 -0.14522867 -0.060376476 0.04204899 0.1483193 -0.12999214 0.035341587 0.12151849
-0.054411143 0.010679825
00000000: b6e2 17be a8fe 7e3d 1f7b ba3d 3e81 a2bd
00000010: 861a 763d ccf2 88bd 80d2 303e 0c93 163e
00000020: 223e aebd 15f8 1bbc 6c54 033e 555a 9d3b
00000030: daa1 c2bc c771 aabd 2990 debd 2cf0 82bd
00000040: e98f 15be 6037 383e 5144 f4bd cfb8 553d
00000050: 1f6d 4bbd a7a6 0cbe ec51 50bd 87ee a03c
00000060: c671 393e 5b01 b63d cae6 49bd 0c95 293e
00000070: 66d0 23bd 0715 823c 64c0 b63d ad29 eabd
00000080: 6fb3 10bd 2240 863d 8b68 15bc 61ce bbbd
00000090: 3c5e 273e c498 72bc 769c 1b3e 8cd1 c4bc
000000a0: 043e 0e3e d3b6 14be 534d 77bd 903b 2c3d
000000b0: 04e1 173e a91c 05be 57c2 103d b0de f83d
000000c0: 38de 5ebd 6ffa 2e3c
