Code/coda-pca-orig/coda/codes/model_weights.pth (torch_old, 28157 bytes, 10 tensors)

linear.weight f4 [4, 10]
0	0x3c9de6be	0.019275066
1	0x3d3e21a9	0.04641882
2	0x3d3cfd04	0.046139732
3	0x3d150f40	0.036391497
4	0x3d46359f	0.04839098
5	0x3c7de58e	0.015496625
6	0x3b9fb188	0.0048734583
7	0xbdf5c90e	-0.12001239
8	0x3d6da113	0.05801494
9	0xbe32cab0	-0.17460132
10	0x3d5cac6b	0.053875368
11	0x3deb01b7	0.114749365
12	0x3d0d9e79	0.03457496
13	0x3cc1bbf1	0.023649188
14	0x3e560c26	0.20903072
15	0x3d493961	0.049126986
16	0xbd96e2d6	-0.07367484
17	0xbda4dfa3	-0.08050468
18	0xbd01637e	-0.031589024
19	0x3db4ef80	0.088347435
20	0xbb9ed0af	-0.0048466544
21	0xbd859578	-0.065226495
22	0x3d230f79	0.039809678
23	0x3c592190	0.013252631
24	0xbd98e48a	-0.07465465
25	0x3e0d0467	0.1377121
26	0xbb2d06fb	-0.0026401866
27	0xbe03481c	-0.12820476
28	0xbc23bdd1	-0.009993986
29	0xbcd694a0	-0.026193917
30	0xbca69c18	-0.020338103
31	0xbe2f7dbb	-0.17137806
32	0x3d844e40	0.064602375
33	0xbbebee2c	-0.007200023
34	0x3dcaa088	0.098939
35	0x3e418881	0.18899728
36	0x3d9ca5bc	0.07648799
37	0x3d3475b3	0.04405756
38	0xbe5db184	-0.21649748
39	0x3b26c2c6	0.0025445684

linear.bias f4 [4]
0	0x3d683e45	0.05670001
1	0xbe618cd5	-0.2202638
2	0x3db17ed7	0.08666771
3	0x3daeb94f	0.085314386

encoder.layer0.weight f4 [20, 200]
0	0xbe4756af	-0.19466661
1	0xbe78ebe7	-0.2430874
2	0xbe192007	-0.14953624
3	0xbe87605a	-0.26440698
4	0xbe528d7f	-0.20561789
5	0xbe23875f	-0.15969609
6	0xbe5b74fa	-0.21431342
7	0xbdd45d01	-0.103693016
8	0xbe54aab3	-0.20768242
9	0xbe84a920	-0.25910282
10	0xbe5da257	-0.21643959
11	0xbe5fe1ae	-0.21863434
12	0xbe55eb33	-0.20890503
13	0xbe2ea9c9	-0.17056955
14	0xbe7db595	-0.247763
15	0xbe316be2	-0.1732631
16	0xbe3393ee	-0.175369
17	0xbe3fb4e3	-0.18721347
18	0xbe5f16f1	-0.21786095
19	0xbe0b6078	-0.13611019
20	0xbe3e0c46	-0.1855937
21	0xbe5d686c	-0.21621865
22	0xbe6491ed	-0.22321291
23	0xbe1b311c	-0.15155452
24	0xbe2ce963	-0.16885905
25	0xbe1ef582	-0.15523341
26	0xbe209e37	-0.15685354
27	0xbe3fe5fc	-0.18740076
28	0xbe2620db	-0.16223471
29	0xbe7d4c4e	-0.24736139
30	0xbdf96a00	-0.12178421
31	0xbe23dca8	-0.16002142
32	0xbe7a2721	-0.24428989
33	0xbe35521c	-0.17707103
34	0xbe602adc	-0.2189135
35	0xbe5090e9	-0.20367779
36	0xbe656fc8	-0.22405922
37	0xbe26b548	-0.16280091
38	0xbe4899a8	-0.19589865
39	0xbe2cd8f1	-0.16879632
40	0xbe7bc9a9	-0.24588646
41	0xbe77fda9	-0.24217857
42	0xbe0066f6	-0.12539276
43	0xbe853882	-0.26019675
44	0xbe11bc77	-0.1423205
45	0xbe14bc8a	-0.14525047
46	0xbe498106	-0.19678125
47	0xbdfde9c3	-0.12398102
48	0xbe3d60f9	-0.18494023
49	0xbe865535	-0.26236883
50	0xbe349482	-0.17634776
51	0xbe1884c8	-0.14894402
52	0xbe85bd48	-0.26120973
53	0xbe7a3f72	-0.24438265
54	0xbe84be7a	-0.25926572
55	0xbe73d7fc	-0.2381286
56	0xbe386027	-0.18005429
57	0xbe819ab6	-0.25313348
58	0xbe3cf594	-0.18453056
59	0xbe44cc9f	-0.19218682
60	0xbe871163	-0.26380453
61	0xbe5d43d5	-0.21607907
62	0xbe85fe55	-0.26170602
63	0xbe6d52f0	-0.2317617
64	0xbe717409	-0.2357942
65	0xbe3a5cde	-0.18199489
66	0xbe3bf423	-0.1835485
67	0xbe756b8b	-0.23966806
68	0xbe81d3e8	-0.25356984
69	0xbe1ce3af	-0.1532123
70	0xbe846f96	-0.25866383
71	0xbe50c65d	-0.2038817
72	0xbe2e1bb8	-0.17002761
73	0xbe40386a	-0.1877152
74	0xbe5869db	-0.2113413
75	0xbdfadeef	-0.122495525
76	0xbe79e7f5	-0.24404891
77	0xbe155d26	-0.14586315
78	0xbe1d2c9d	-0.1534905
79	0xbdef7812	-0.116928235
80	0xbe1c1606	-0.15242776
81	0xbe3d7993	-0.18503408
82	0xbe85df2d	-0.26146832
83	0xbe243283	-0.16034894
84	0xbe5ce438	-0.21571434
85	0xbe529405	-0.20564277
86	0xbe19a502	-0.15004352
87	0xbe396bf2	-0.18107584
88	0xbe84b86b	-0.2592195
89	0xbe353913	-0.17697553
90	0xbe88f562	-0.26749712
91	0xbe2afb8a	-0.16697517
92	0xbe3f1a78	-0.18662441
93	0xbe01f327	-0.12690412
94	0xbe80c242	-0.25148207
95	0xbe20db11	-0.15708567
96	0xbe4036ba	-0.18770877
97	0xbe53d1fd	-0.20685573
98	0xbe15b5d5	-0.14620145
99	0xbe3effa8	-0.18652213
100	0x3989899f	0.00026233212
101	0xb1ab28a4	-4.9813753e-09
102	0xa45f0d91	-4.8366908e-17
103	0x3b7a6758	0.003820857
104	0x3bd9aa50	0.0066426173
105	0x3b0b7806	0.0021281256
106	0xbc01cab2	-0.0079218615
107	0x1f168a7f	3.1878297e-20
108	0x143848ac	9.303958e-27
109	0xa30440fc	-7.169495e-18
110	0xb183cf09	-3.836139e-09
111	0x3a8d0551	0.0010759031
112	0x3961181a	0.0002146665
113	0x3bac3989	0.005255882
114	0x38adc5aa	8.286101e-05
115	0x3781bb69	1.5465268e-05
116	0xb12678a8	-2.4224764e-09
117	0xba109853	-0.0005515862
118	0xbbeb9286	-0.007189098
119	0xba82754d	-0.0009953171
120	0x39477bda	0.00019024257
121	0x981dc3a6	-2.0390552e-24
122	0x1a7281c2	5.0149245e-23
123	0xb0688089	-8.458377e-10
124	0x9f0986d8	-2.912242e-20
125	0xae396221	-4.2151286e-11
126	0xba34b8d4	-0.00068939966
127	0x965343ce	-1.706584e-25
128	0xb92d1840	-0.000165076
129	0xb917afcd	-0.00014465973
130	0xbbde620c	-0.0067865904
131	0xba1463b1	-0.0005660607
132	0x3b2bc8b7	0.0026212165
133	0x367d5b14	3.7752952e-06
134	0x1481c429	1.3103043e-26
135	0x25a1506e	2.798355e-16
136	0xb24dbdaa	-1.1975695e-08
137	0xbb93c55f	-0.0045096125
138	0x13d65fe8	5.4115766e-27
139	0x3381e44b	6.048557e-08
140	0x38709536	5.7359422e-05
141	0x3bb566c7	0.0055359337
142	0x39ccfb39	0.00039097088
143	0x34eecac2	4.447848e-07
144	0xba122fd5	-0.00055765855
145	0x1f22eb55	3.4499496e-20
146	0xba4c7f2a	-0.00078009313
147	0xa371f74e	-1.3117005e-17
148	0x2f1d0c2a	1.4283388e-10
149	0xba8addb3	-0.0010594636
150	0x9cc37551	-1.2934343e-21
151	0x368548aa	3.972168e-06
152	0x95ba1aff	-7.5167394e-26
153	0xbba51e50	-0.005039014
154	0xbba706fd	-0.0050972686
155	0x3b8dc305	0.0043262267
156	0x170d1444	4.5585136e-25
157	0x15616cb5	4.5524143e-26
158	0x3b2c19ff	0.0026260612
159	0x3984152c	0.00025192776
160	0x1be5af4e	3.799816e-22
161	0xb529e4d4	-6.3290395e-07
162	0x396b80d9	0.00022459346
163	0x3b57d09a	0.0032930733
164	0x156d17b7	4.7880477e-26
165	0xba0e9f28	-0.0005440586
166	0xba7f5344	-0.00097398856
167	0xab9d50fb	-1.1177998e-12
168	0xbb407697	-0.002936756
169	0x179ea4c4	1.0252103e-24
170	0x3b75d155	0.0037508805
171	0x371ffa83	9.535465e-06
172	0x9e07c62f	-7.187824e-21
173	0x3ba9a9f2	0.0051777298
174	0x3aef6bb4	0.0018266351
175	0x3bed9727	0.007250685
176	0x399644b5	0.0002866142
177	0x387af8e1	5.983643e-05
178	0xbb74682f	-0.0037293544
179	0x1ba1b866	2.675438e-22
180	0x9f1fbcad	-3.382563e-20
181	0x3a3c08ca	0.00071729405
182	0x3b510df2	0.0031899181
183	0xbc0103ad	-0.0078744115
184	0xb9bcde30	-0.00036023697
185	0xba59d430	-0.00083095115
186	0x1b004e04	1.061312e-22
187	0xbbb46666	-0.005505371
188	0x399c1760	0.00029772054
189	0x3bb2a461	0.0054517244
190	0x35ad027d	1.2890229e-06
191	0xbb513259	-0.0031920879
192	0x32c025b8	2.2368894e-08
193	0x3bffd895	0.007807801
194	0x9c565abf	-7.0923947e-22
195	0x3b7082d8	0.0036699083
196	0x934ecfc2	-2.6103288e-27
197	0x21d62db2	1.45133e-18
198	0x32d39a40	2.4633778e-08
199	0x341a00be	1.4342638e-07
200	0x3e347aac	0.1762492
201	0x3e206d84	0.15666777
202	0x3e4c2867	0.19937287
203	0x3e09c830	0.13455272
204	0x3e80e612	0.2517553
205	0x3e5a063a	0.21291438
206	0x3e4b6d2d	0.19865866
207	0x3e0d4f3d	0.13799758
208	0x3e28394f	0.16428111
209	0x3e04530b	0.12922303
210	0x3e07bb95	0.1325515
211	0x3e59b916	0.21262011
212	0x3e3d93f9	0.18513478
213	0x3e892657	0.26787063
214	0x3e2d01cf	0.16895221
215	0x3e15d1d3	0.14630823
216	0x3e1bcfcc	0.15215987
217	0x3e659c5f	0.22422932
218	0x3df0fbb5	0.11766759
219	0x3e8816d6	0.26579922
220	0x3e124de9	0.14287533
221	0x3e72ca2b	0.23709933
222	0x3e3e9417	0.1861118
223	0x3e47809d	0.19482656
224	0x3e712470	0.23549056
225	0x3e6b404d	0.22973748
226	0x3e5bb5b4	0.21456033
227	0x3e2ef985	0.17087372
228	0x3e36cc43	0.17851357
229	0x3e28be28	0.16478789
230	0x3e1a7976	0.15085396
231	0x3e7c826b	0.24659126
232	0x3e7d11eb	0.24713866
233	0x3e560af0	0.2090261
234	0x3e21ca44	0.15799814
235	0x3e17dea2	0.14831021
236	0x3e22bed9	0.15893115
237	0x3df4edfe	0.11959456
238	0x3e2e0770	0.16995025
239	0x3e093126	0.13397655
240	0x3e1dd52a	0.15413347
241	0x3e60a310	0.21937203
242	0x3e3a8680	0.1821537
243	0x3e2d05ad	0.16896696
244	0x3e21f567	0.1581627
245	0x3e82b330	0.25527334
246	0x3e11c142	0.14233878
247	0x3e40b254	0.18818027
248	0x3e7791ac	0.24176663
249	0x3dec3065	0.11532668
250	0x3e081bbc	0.1329183
251	0x3e71cbdb	0.23612921
252	0x3e6bbda9	0.23021568
253	0x3e71dcde	0.2361941
254	0x3e80ca88	0.2515452
255	0x3e3af3d0	0.1825707

encoder.layer0.bias f4 [20]
0	0xbe85181f	-0.25994965
1	0x3e84dc4b	0.2594932
2	0x3e89b55b	0.26896176
3	0xbe658466	-0.22413787
4	0x3e801b74	0.25020945
5	0xbe7855ab	-0.2425143
6	0xbe8f1948	-0.27948976
7	0x3e7dcbec	0.24784821
8	0x3e896495	0.2683455
9	0xbe65acbd	-0.22429176
10	0xbe5313c7	-0.20613013
11	0xbe05d8eb	-0.13071029
12	0x3e4c30e0	0.1994052
13	0x3e13af69	0.14422382
14	0xbe554456	-0.2082685
15	0xbe03eec0	-0.12884045
16	0x3e7d14d6	0.2471498
17	0x3e265ea0	0.16247034
18	0x3e185f95	0.14880212
19	0x3e50b610	0.20381951

encoder.final_layer.weight f4 [10, 20]
0	0x3dd86418	0.10565966
1	0xbe0f7f5c	-0.14013427
2	0xbe8a1b22	-0.26973826
3	0x3d85642a	0.065132454
4	0xbe3e6ff9	-0.18597402
5	0x3db37bc0	0.08763838
6	0x3eaa5800	0.33270264
7	0xbe62f457	-0.22163521
8	0xbe7934fd	-0.2433662
9	0x3eb96b28	0.36214566
10	0x3e97be41	0.2963734
11	0x3e57caef	0.21073507
12	0xbeab2c2e	-0.33432144
13	0xbe8c0200	-0.27345276
14	0x3e19dc98	0.15025556
15	0x3e7cff5e	0.2470679
16	0xbead39af	-0.33833072
17	0xbe53041c	-0.20607036
18	0xbe116994	-0.14200431
19	0xbdf93347	-0.121679835
20	0xbe4df061	-0.20111229
21	0x3e303fe7	0.17211877
22	0x3d6e40af	0.058167156
23	0xbe9c1457	-0.30484268
24	0x3ec531cf	0.38514563
25	0xbeb2829e	-0.34865278
26	0xbe2465ac	-0.1605441
27	0x3ec1c5e4	0.3784629
28	0x3e74b3c6	0.23896703
29	0xbde7d108	-0.113191664
30	0xbda13093	-0.07870593
31	0xbe06d868	-0.1316849
32	0x3ea88cb5	0.3291985
33	0x3e271890	0.16317964
34	0xbe5d7e22	-0.21630147
35	0xbd7c5d41	-0.06161237
36	0x3e075eb4	0.1321972
37	0x3ec06341	0.37575725
38	0x3e068436	0.13136372
39	0x3d6578da	0.056023456
40	0xbd1e328e	-0.03862243
41	0x3e2c6b36	0.16837773
42	0x3ebff7b6	0.37493676
43	0xbe622099	-0.22082748
44	0x3e422382	0.18958858
45	0xbe844078	-0.25830436
46	0xbe17f757	-0.14840446
47	0x3db5a494	0.088692814
48	0x3ea9315c	0.3304547
49	0xbea13ec1	-0.3149319
50	0xbe9efef0	-0.31053877
51	0x3da0eeb6	0.078580305
52	0x3e93baab	0.28853354
53	0x3e8f1801	0.27948
54	0xbead919d	-0.33900157
55	0xbe728746	-0.23684415
56	0x3db6c745	0.089247264
57	0xbaacfbc7	-0.0013197594
58	0x3ec5294d	0.38508072
59	0x3e88f86b	0.26752028
60	0x3ec6cc46	0.38827723
61	0x3cc607bd	0.024173612
62	0xbde0a8df	-0.109697096
63	0x3eb02c6a	0.34408885
64	0x3c5b38d8	0.013380252
65	0x3e01a001	0.12658693
66	0x3e25cf5a	0.1619238
67	0x3d1a37ad	0.037650753
68	0xbeba0d4c	-0.3633827
69	0x3d8e4929	0.06947548
70	0x3ebee5d9	0.37284735
71	0x3e08dec7	0.13366233
72	0xbe32a3be	-0.17445275
73	0xbe694305	-0.22779472
74	0x3e969dd2	0.29417282
75	0x3e85ca85	0.26131073
76	0xbe4212a3	-0.18952422
77	0xbea418e8	-0.32050252
78	0xbc83d12a	-0.016090948
79	0xbe2c657b	-0.16835587
80	0x3dc06ade	0.09395383
81	0xbd806d6a	-0.06270869
82	0xbde1c410	-0.11023724
83	0x3e104e9b	0.14092486
84	0xbe160e27	-0.14653836
85	0x3dc87ad9	0.09789056
86	0x3de6a892	0.11262621
87	0xbe9e720b	-0.30946383
88	0xbe56fd4d	-0.20995064
89	0x3e57615f	0.21033238
90	0xbb7ec7fe	-0.003887653
91	0x3e168a87	0.14701281
92	0xbe163aea	-0.14670911
93	0xbdf62f54	-0.12020746
94	0x3d131835	0.035911757
95	0x3da8020d	0.08203516
96	0xbe23206a	-0.15930334
97	0xbd4c79eb	-0.049920958
98	0xbeab4a86	-0.33455294
99	0xbe9f56c3	-0.3112088
100	0xbe7dbeee	-0.24779865
101	0x3e06057a	0.13088027
102	0x3bcda08e	0.006275243
103	0xbe1a3719	-0.1506008
104	0x3e89d294	0.2691847
105	0xbd6e22c3	-0.05813862
106	0xbebb8212	-0.36622673
107	0x3e4d8441	0.20069982
108	0x3d8affb6	0.06787054
109	0xbe9ff189	-0.31238964
110	0xbe3c212b	-0.18372028
111	0xbd19ba76	-0.03753134
112	0x3bd68d0f	0.006547577
113	0x3dcf6389	0.10126407
114	0xbe467b91	-0.19383074
115	0xbe79e8d6	-0.24405226
116	0x3e82bd5e	0.255351
117	0x3e961168	0.29310155
118	0x3cc8016f	0.024414746
119	0x3d3eae34	0.04655285
120	0xbe5a4ac1	-0.21317579
121	0x3e41615d	0.18884797
122	0x3d651fa9	0.055938397
123	0xbed266b3	-0.41093978
124	0x3e2fbc05	0.17161568
125	0xbe8554cf	-0.26041266
126	0xbcb2da0e	-0.021832492
127	0x3d8a6b43	0.0675874
128	0x3d967959	0.07347364
129	0xbe9bb5b9	-0.3041208
130	0xbec254bb	-0.3795527
131	0xbe9ff905	-0.31244674
132	0x3d472158	0.048615783
133	0x3ea045fc	0.31303394
134	0xbe4af623	-0.19820456
135	0xbe30b163	-0.17255168
136	0x3e865fce	0.26244968
137	0x3e8d4ab3	0.27596053
138	0x3e9df27e	0.3084907
139	0x3e4475e9	0.19185604
140	0xbea2a629	-0.31767395
141	0x3ed284b0	0.41116858
142	0x3eb8d501	0.3610001
143	0xbd194910	-0.037423193
144	0x3e93b79f	0.2885103
145	0xbdf4d847	-0.11955314
146	0xbe9985db	-0.29984936
147	0x3e755e88	0.23961842
148	0x3ebd4b50	0.3697152
149	0xbe83f59a	-0.25773317
150	0xbe8cfff9	-0.27539042
151	0xbe163e0c	-0.14672107
152	0x3ec06252	0.37575012
153	0x3e822e16	0.25425786
154	0xbe6623d6	-0.22474608
155	0xbea59d54	-0.32346594
156	0x3daa0dc3	0.08303406
157	0x3eb9f483	0.3631936
158	0x3de7785b	0.11302253
159	0x3bd31bb5	0.006442512
160	0xbeb7aafd	-0.3587264
161	0x3e47f92b	0.19528644
162	0x3d99343d	0.07480667
163	0xbe93a0ac	-0.2883352
164	0x3df2c2c3	0.11853554
165	0xbec52c83	-0.38510522
166	0x39d38f22	0.00040351698
167	0x3eacd8a0	0.33759022
168	0x3e60605b	0.21911757
169	0xbebc95e5	-0.3683311
170	0xbe1782e8	-0.1479603
171	0xbe0f8aac	-0.14017743
172	0xbc2a3e5a	-0.010390842
173	0x3e619a82	0.22031596
174	0xbe77ef8e	-0.24212477
175	0xbe91dfb5	-0.28490987
176	0x3e9a45a3	0.30131254
177	0x3eb441ff	0.352066
178	0x3e616927	0.22012769
179	0x3ebee8b9	0.37286928
180	0xbe08be76	-0.13353905
181	0x3e6bfa42	0.23044685
182	0x3e56527c	0.20929903
183	0xbdf2da19	-0.11858005
184	0x3e9f7940	0.31147194
185	0xbeb63b6f	-0.3559222
186	0xbec192e2	-0.37807375
187	0x3e47506b	0.19464271
188	0x3cf700e1	0.030151786
189	0xbea36952	-0.3191629
190	0xbeb5ec17	-0.35531685
191	0xbe7b55b3	-0.2454441
192	0x3da5d11b	0.08096524
193	0x3e3c00fc	0.1835975
194	0xbe93a39e	-0.28835768
195	0x3bc885a5	0.0061194473
196	0x3dbd7792	0.09251322
197	0xbcd6acd4	-0.026205458
198	0x3eb8a5d9	0.36064032
199	0x3ec037a4	0.3754245

encoder.final_layer.bias f4 [10]
0	0xbdb2f110	-0.08737385
1	0x3e80f1be	0.25184435
2	0x3de0c334	0.10974732
3	0xbec60933	-0.38678893
4	0xbe91b1c2	-0.2845593
5	0x3d9a7533	0.07541885
6	0x3e34570c	0.17611331
7	0x3e36d461	0.17854454
8	0x3ebe8dc0	0.37217522
9	0x3e80dd06	0.25168628

decoder.layer0.weight f4 [20, 10]
0	0xbe9a90cb	-0.30188593
1	0x3d8d6709	0.06904418
2	0x3eca5bb8	0.395231
3	0xbead226a	-0.33815318
4	0xbe965f1d	-0.2936944
5	0x3e3f9e5e	0.18712756
6	0x3ec62bc5	0.38705269
7	0x3ee7b375	0.45254102
8	0x3e9d6630	0.30742025
9	0x3ecaf745	0.39641777
10	0xbe70ecb3	-0.23527794
11	0x3dce4a8f	0.10072815
12	0x3eeb2456	0.4592616
13	0x3e0834e4	0.13301426
14	0xbe9d985a	-0.30780298
15	0xbd53062d	-0.05151956
16	0xbd1414d7	-0.036152687
17	0x3eb45c50	0.3522668
18	0x3e4eb123	0.2018476
19	0x3eeb2250	0.45924616
20	0xbe02e7a8	-0.12783682
21	0x3e98f99d	0.2987794
22	0x3ee5be0e	0.44871563
23	0xbeda99c7	-0.42695448
24	0x3dd2ce46	0.1029325
25	0x3bf72ba1	0.007543043
26	0xbd418417	-0.04724511
27	0x3ed7f06b	0.42175612
28	0x3e0cfadb	0.13767569
29	0x3e1ce279	0.15320767
30	0x3e820449	0.25393894
31	0xbe83efc0	-0.25768852
32	0x3dd540d7	0.10412758
33	0xbd1ab817	-0.037773218
34	0x3ebde8b1	0.37091592
35	0xbda7d9ee	-0.08195864
36	0xbef0d8f8	-0.47040534
37	0xbce51619	-0.027964639
38	0xbeeba1b2	-0.460218
39	0xbe9dbca4	-0.30807984
40	0x3eeee3c9	0.4665816
41	0xbe2f6b7b	-0.17130844
42	0xbeee2a8b	-0.46516833
43	0x3e9880dd	0.29785815
44	0xbda16805	-0.07881168
45	0xbd501231	-0.0507986
46	0x3c3dbb2d	0.011580271
47	0x3d26b3f3	0.040698957
48	0xbe145f47	-0.1448947
49	0x3da80e03	0.082057975
50	0x3dac3dde	0.08410238
51	0x3ebdae94	0.37047255
52	0x3eace2b3	0.33766708
53	0xbdd4f537	-0.103983335
54	0xbe6c5a15	-0.23081239
55	0xbdaa16b4	-0.083051115
56	0x3edc819b	0.4306763
57	0x3eaf93d5	0.34292474
58	0x3b8e6e1d	0.0043466226
59	0x3e69fdf4	0.22850782
60	0x3c84978d	0.016185546
61	0xbcb22f94	-0.021751203
62	0xbec716ec	-0.38884676
63	0x3eeecfe9	0.46642998
64	0x3ee348e0	0.44391537
65	0xbecd0c5a	-0.40048486
66	0xbe8b124c	-0.27162397
67	0xbef45e85	-0.47728363
68	0x3d66598c	0.056237742
69	0xbebff8a0	-0.37494373
70	0x3d2caeff	0.042159077
71	0x3df458ad	0.11930976
72	0x3e5af82c	0.21383733
73	0xbebdd268	-0.3707459
74	0xbec6e516	-0.38846654
75	0x3e0a7a97	0.13523327
76	0xbda6cd9d	-0.08144686
77	0x3ef4daea	0.47823268
78	0x3cc5e83c	0.02415859
79	0x3eb6c999	0.35700682
80	0xbd036e09	-0.03208736
81	0xbddf61d7	-0.10907333
82	0x3df432c6	0.11923747
83	0x3e362692	0.17788151
84	0x3d1f1177	0.038835015
85	0xbd573bed	-0.052547384
86	0xbd9dc1d6	-0.07702987
87	0xbec79dc1	-0.38987544
88	0x3de563dd	0.11200688
89	0x3d981110	0.074251294
90	0xbe8d33d7	-0.27578613
91	0x3e6ab360	0.22919989
92	0x3ecce6e8	0.40019917
93	0xbd96d644	-0.07365087
94	0x3dcf0ecf	0.101102464
95	0x3e42743a	0.1898965
96	0x3eada56d	0.33915272
97	0xbd06fd4f	-0.032956418
98	0x3db3d4fb	0.08780857
99	0x3e3e9ea4	0.18615204
100	0xbe05b818	-0.13058507
101	0x3e7ef23d	0.24897094
102	0x3ea3e207	0.32008383
103	0xbe7aed07	-0.24504481
104	0x3bd9ca18	0.006646406
105	0x3e8dad80	0.27671432
106	0x3ee2e9c8	0.44318986
107	0x3ec8f974	0.39252818
108	0x3eca42f7	0.39504215
109	0x3ef13e45	0.4711782
110	0xbedd32a6	-0.43202704
111	0x3e11fe72	0.1425722
112	0x3daf3358	0.08554715
113	0xbe46961b	-0.19393198
114	0xbecb30b3	-0.39685592
115	0x3e542fda	0.20721379
116	0x3ea14e5a	0.3150509
117	0x3e7ffba5	0.24998339
118	0x3da46adb	0.080281936
119	0x3e0f7833	0.14010696
120	0x3e9e93af	0.3097205
121	0xbe407f50	-0.18798566
122	0xbd544616	-0.05182465
123	0xbe435b90	-0.19077897
124	0xbcc89a34	-0.024487592
125	0xbc68f097	-0.014217517
126	0xbe93f06a	-0.2889436
127	0x3de7a913	0.11311545
128	0xbe4c623f	-0.19959353
129	0xbe90e8be	-0.28302568
130	0x3ef0b042	0.47009474
131	0xbe851fea	-0.2600091
132	0xbe5db8a3	-0.21652465
133	0xbdee0ec4	-0.1162391
134	0x3eafc56a	0.34330302
135	0xbe2f4296	-0.17115244
136	0xbeef67b8	-0.4675882
137	0xbda0f434	-0.07859078
138	0xbef0dd36	-0.4704377
139	0xbe376669	-0.1791016
140	0x3df8ca92	0.12148012
141	0xbeb477c9	-0.3524764
142	0xbe8aa22b	-0.2707685
143	0x3ea4ed28	0.32212186
144	0x3e0731dc	0.13202614
145	0xbe6d862c	-0.23195714
146	0xbea5d4af	-0.32388827
147	0xbec8c139	-0.39209917
148	0xbee1eeea	-0.4412759
149	0xbec76b1a	-0.389489
150	0x3ee3b216	0.44471806
151	0xbe7060e6	-0.23474464
152	0xbef1610b	-0.4714435
153	0x3e8cb995	0.27485338
154	0x3cbb9241	0.022896888
155	0x3e1bb43b	0.15205471
156	0xbcf8db4e	-0.03037801
157	0xbe76bd24	-0.24095589
158	0xbe1c53b7	-0.1526631
159	0xbefcf92a	-0.49408847
160	0x3ed74d67	0.4205124
161	0xbc6bbc1c	-0.0143881105
162	0xbe29c8d8	-0.16580522
163	0x3e57a46d	0.21058817
164	0x3e97dd16	0.29660863
165	0xbea1f838	-0.31634688
166	0xbec2e032	-0.38061672
167	0xbdd7019b	-0.10498353
168	0xbeee17c0	-0.46502495
169	0x3cfcb48a	0.030847806
170	0x3ce3d2fd	0.027810568
171	0x3e503b08	0.20335019
172	0x3e82dd3e	0.2555942
173	0xbe1a2238	-0.15052116
174	0xbe8b6c64	-0.27231133
175	0x3e8722a1	0.26393607
176	0x3ea91e25	0.3303081
177	0x3d66b25a	0.056322433
178	0x3ee22110	0.4416585
179	0x3e54094d	0.20706673
180	0x3e98ca1e	0.29841703
181	0xbe05bbab	-0.13059871
182	0x3ca4efc0	0.020133853
183	0x3e7022f2	0.2345083
184	0x3e80cf15	0.2515799
185	0xbe454d4c	-0.19267768
186	0xbc018e43	-0.007907453
187	0xbec66622	-0.38749796
188	0xbe9c956e	-0.30582756
189	0x3994efec	0.00028407515
190	0xbee18723	-0.44048414
191	0x3d87d167	0.06631737
192	0x3e9d8093	0.30762157
193	0xbe84f3b9	-0.25967196
194	0x3dfd8c41	0.12380267
195	0x3e3e3dec	0.18578309
196	0x3ead0a2e	0.3379683
197	0x3ee476dc	0.44621933
198	0x3dae72a4	0.0851796
199	0x3e83399d	0.25629893

decoder.layer0.bias f4 [20]
0	0x3eda05b5	0.4258248
1	0x3e471ee1	0.19445373
2	0x3ea65373	0.32485542
3	0xbe39b23c	-0.18134397
4	0xbe6b884d	-0.23001213
5	0x3edfb6f1	0.4369426
6	0xbe788a71	-0.24271561
7	0x3ead02a4	0.33791077
8	0xbecf545b	-0.40494046
9	0x3ead4c21	0.33847144
10	0x3ee3a801	0.44464114
11	0x3eac2ea2	0.33629328
12	0xbea1dded	-0.31614628
13	0xbe38be53	-0.18041353
14	0xbec9e5e5	-0.39433208
15	0x3e18c693	0.149195
16	0xbe6427c8	-0.222808
17	0x3ea65486	0.3248636
18	0xbea98a34	-0.33113253
19	0x3e9c9204	0.3058015

decoder.final_layer.weight f4 [100, 20]
0	0x3dc8d68b	0.09806546
1	0x3df6e64d	0.12055645
2	0x3e8b6dd4	0.2723223
3	0xbd249dc3	-0.040189516
4	0xbe84eef4	-0.25963557
5	0x3e325e5f	0.17418812
6	0xbe280077	-0.16406427
7	0x3d8c01cd	0.06836281
8	0xbe99761d	-0.29972926
9	0x3e012db3	0.12615089
10	0x3d7edb8e	0.062221102
11	0x3e53caeb	0.20682876
12	0xbe8dc19b	-0.27686772
13	0xbe869f9b	-0.26293644
14	0xbe7e9e46	-0.24865064
15	0xbe18cf65	-0.14922865
16	0xbe912c5b	-0.28354153
17	0xbcf6355f	-0.030054746
18	0x3cf03b80	0.029325247
19	0x3e9ff0a0	0.3123827
20	0x3e774b51	0.24149825
21	0x3e98f216	0.29872197
22	0x3b7b08aa	0.0038304725
23	0xbe88b175	-0.2669789
24	0xbd3d3534	-0.046193317
25	0x3e3ead1a	0.1862072
26	0xbe513bdc	-0.20432991
27	0x3e9b84d2	0.3037477
28	0x3d9201d0	0.07129252
29	0x3dbfbb28	0.09361869
30	0x3eb62716	0.35576695
31	0x3e2c25ff	0.1681137
32	0xbe24047a	-0.16017333
33	0xbc9d4ad8	-0.019200727
34	0xbe1eed61	-0.1552024
35	0xbe9d8095	-0.30762163
36	0xbe8f66ad	-0.28008023
37	0x3dd574c8	0.10422665
38	0xbea2db53	-0.31807956
39	0x3e3fee88	0.18743336
40	0x3d6cfd84	0.05785896
41	0x3e0d0e7e	0.1377506
42	0xb93fe481	-0.00018300304
43	0xbe02f425	-0.12788446
44	0xbdd57f66	-0.1042469
45	0x3e7bf12f	0.24603723
46	0xbe00b520	-0.12569094
47	0x3eb2de9a	0.34935457
48	0x3dc76679	0.09736342
49	0x3e8b25ce	0.2717728
50	0x3e8275b5	0.25480428
51	0x3e50f30d	0.20405217
52	0xbe33f1cb	-0.17572705
53	0xbe97ac34	-0.29623568
54	0xbea192e7	-0.3155739
55	0xbd567a08	-0.05236247
56	0xbe7d39e3	-0.24729113
57	0x3e8393ad	0.25698605
58	0xbdd37793	-0.10325541
59	0x3ebed88c	0.37274587
60	0x3b8efcd3	0.004363635
61	0x3de5f58a	0.112284735
62	0x3ea05987	0.31318304
63	0xbc065e79	-0.008201235
64	0x3d185831	0.03719348
65	0x3e2e24ff	0.170063
66	0xbd69808d	-0.05700736
67	0xbaba4734	-0.0014211894
68	0xbd7d2398	-0.061801523
69	0x3eb367e2	0.35040194
70	0x3e17ce73	0.14824848
71	0x3e4409e7	0.19144402
72	0xbdad63e8	-0.08466321
73	0xbd435a5e	-0.047693603
74	0x3bab7d39	0.0052334336
75	0x3bbe4d63	0.005807565
76	0xbebd5d8a	-0.36985427
77	0x3e230169	0.15918507
78	0xbda8aabf	-0.08235692
79	0x3e774519	0.24147452
80	0x3de1ac9b	0.1101925
81	0x3d590778	0.05298564
82	0x3e98a48c	0.2981304
83	0xbda27177	-0.07931798
84	0xbe55e061	-0.20886375
85	0x3e242289	0.16028799
86	0xbe154068	-0.1457535
87	0x3e5d8b14	0.21635085
88	0xbe948310	-0.29006243
89	0x3d94f2ea	0.07272895
90	0x3e9cc185	0.30616394
91	0x3e2a3567	0.16621934
92	0xbe81115c	-0.25208557
93	0xbea085fe	-0.31352228
94	0xbdb282e5	-0.087163724
95	0xbe961776	-0.29314774
96	0xbec1d53f	-0.37858006
97	0x3d431dd2	0.04763586
98	0xbebf5b8a	-0.37374526
99	0x3cd80dfd	0.026373858
100	0x3dc623c2	0.09674789
101	0x3e907b2d	0.28218976
102	0xbcfd149c	-0.030893616
103	0xbeaac3b5	-0.33352438
104	0xbde90bd1	-0.11379207
105	0x3e144ff4	0.14483625
106	0xbe9ab162	-0.30213457
107	0xbd29fd16	-0.041501127
108	0xbe8f69cc	-0.28010404
109	0x3e919dd2	0.2844072
110	0x3e0fb970	0.14035583
111	0xbd259fed	-0.04043572
112	0xbeb2e30a	-0.34938842
113	0xbdee8338	-0.11646122
114	0xbe5a4e0c	-0.21318835
115	0x3dbc91a7	0.092074685
116	0xbe900f30	-0.28136587
117	0x3e231c6b	0.1592881
118	0xbe41e00d	-0.18933125
119	0x3e7ff6a2	0.24996427
120	0x3eb6fc13	0.35739192
121	0x3e636196	0.22205195
122	0x3cdc9592	0.02692679
123	0xbd8173b6	-0.06320898
124	0xbd89c657	-0.067272834
125	0x3ebacff5	0.36486784
126	0xbcd910ad	-0.02649721
127	0x3e858934	0.2608124
128	0xbd18198e	-0.037133746
129	0x3eab8440	0.33499336
130	0x3e90a6af	0.2825217
131	0x3dd41a66	0.103565976
132	0xbb833a2a	-0.0040047364
133	0x3d1bd524	0.038045064
134	0xbe9b1734	-0.3029114
135	0xbcd5db3c	-0.026105516
136	0xbe90277f	-0.28155133
137	0x3eaff0da	0.34363443
138	0xbcc2e95d	-0.023792917
139	0x3e89560b	0.26823458
140	0x3eb670d8	0.35632968
141	0x3e96a864	0.29425347
142	0x3eb5258a	0.35380203
143	0xbcd1abfc	-0.025594704
144	0xbe8a7561	-0.27042678
145	0x3de77132	0.11300887
146	0xbe1c405c	-0.15258926
147	0x3ea79f43	0.32738695
148	0x3dd9e6f2	0.106397524
149	0x3ea7e53f	0.32792088
150	0x3df4b967	0.11949425
151	0x3eb196ec	0.34685457
152	0xbdfeabc5	-0.12435106
153	0xbec48434	-0.38382113
154	0xbe394ec4	-0.18096453
155	0xbde62d30	-0.112390876
156	0x3c0e2f96	0.008678338
157	0x3e699294	0.22809821
158	0xbdd76f78	-0.10519308
159	0xbcc91e9e	-0.024550732
160	0xbbe7053b	-0.007050184
161	0x3e0d913a	0.13824931
162	0x3eb2973e	0.34881014
163	0xbe5b112d	-0.21393271
164	0xbe55d0ce	-0.20880434
165	0x3e0aab7d	0.1354198
166	0xbea91040	-0.3302021
167	0x3bce1a3f	0.00628975
168	0xbd14b9e6	-0.0363101
169	0x3df78c57	0.120873146
170	0x3ddd394a	0.10801943
171	0x3e671ce8	0.2256962
172	0xbe517958	-0.20456445
173	0xbe6c2e9d	-0.23064657
174	0xbe77d379	-0.24201764
175	0xbe4b8385	-0.1987439
176	0x3d2fd332	0.04292602
177	0xbd5734f0	-0.05254072
178	0xbd03949e	-0.032124154
179	0x3d815c90	0.06316483
180	0x3ea2835c	0.31740844
181	0x3e9c5fa4	0.30541718
182	0x3c31ca20	0.010851413
183	0xbd122855	-0.035682995
184	0xbdbda7c6	-0.09260516
185	0x3e1c7c96	0.15281901
186	0xbbcc759a	-0.006239605
187	0x3e3038dd	0.17209192
188	0x3d266145	0.040620107
189	0x3e16f31a	0.14741173
190	0xbd74539f	-0.05965006
191	0x3e9b70d6	0.30359524
192	0xbea0eaa0	-0.31429005
193	0xbecec898	-0.40387416
194	0xbea4ba7e	-0.32173532
195	0x3ddd76ec	0.10813698
196	0xbea206db	-0.31645855
197	0xbd25f37a	-0.0405154
198	0xbe649972	-0.2232416
199	0x3e5cc76a	0.21560445
200	0x3d9a758c	0.075419515
201	0x3eb3cade	0.35115713
202	0xbd3df255	-0.046373684
203	0xbcc36204	-0.023850448
204	0x3d32990a	0.04360298
205	0x3ebdfae4	0.37105477
206	0xbdb6b065	-0.08920363
207	0x3e0fcf45	0.14043911
208	0xbe11b939	-0.14230813
209	0x3dd4f410	0.10398114
210	0x3e29edb6	0.16594586
211	0x3d885784	0.06657317
212	0xbe920983	-0.28522882
213	0xbe4c47b9	-0.19949235
214	0xbc50e80c	-0.012750637
215	0xbe6c5572	-0.2307947
216	0xbec05676	-0.37565964
217	0x3e46fbc1	0.19431974
218	0xbdbe35b4	-0.09287587
219	0x3e0d554c	0.1380207
220	0x3e643bc8	0.2228843
221	0xbc7e3a28	-0.015516795
222	0x3d9a4d4d	0.07534275
223	0xbeb08380	-0.34475327
224	0xbe03c01b	-0.12866251
225	0x3ea1449b	0.31497654
226	0xbc89dc2a	-0.016828615
227	0xbc9ad6a8	-0.018901184
228	0xbe1fd682	-0.15609172
229	0x3d6d1ae2	0.057886966
230	0x3eaa2f7a	0.33239347
231	0x3dbe134f	0.092810266
232	0xbbbf6d2f	-0.005841873
233	0xbe97d77a	-0.29656583
234	0xbb54e28c	-0.0032483665
235	0xbe263659	-0.1623167
236	0xbddea67c	-0.10871598
237	0x3e8cfd47	0.27536985
238	0xbd880f83	-0.066435836
239	0xbd2312e9	-0.039812956
240	0x3dd7b768	0.10533029
241	0x3eb050f8	0.34436774
242	0x3dba7124	0.09103611
243	0xbeb6e753	-0.3572336
244	0xbda163cb	-0.07880362
245	0xbb591785	-0.003312559
246	0xbe8e200f	-0.27758834
247	0x3d49a7ff	0.04923248
248	0xbe4619f2	-0.19345835
249	0x3dc49cfd	0.09600256
250	0x3e953929	0.29145172
251	0x3cfcb7e7	0.03084941
252	0xbdbaa476	-0.091134
253	0xbe47ab8b	-0.19499032
254	0xbde8b6fd	-0.11363027
255	0xbe5e862d	-0.21730871

decoder.final_layer.bias f4 [100]
0	0x3d55486b	0.052071016
1	0xbdd86fb0	-0.10568178
2	0x3de11119	0.10989589
3	0xbdafb94d	-0.08580265
4	0x3ea1a620	0.31572056
5	0x3e928168	0.28614354
6	0xbd198230	-0.037477672
7	0x3e37a840	0.17935276
8	0x3e39d585	0.18147857
9	0x3e58dac0	0.21177197
10	0x3e4f81cd	0.20264359
11	0x3e9a8c0f	0.3018498
12	0x3e7cb752	0.24679306
13	0x3dba1a64	0.09087065
14	0xbdbe05f3	-0.092784785
15	0x3e13edc7	0.14446174
16	0x3e8cfc8c	0.27536428
17	0x3ea13dea	0.3149255
18	0x3e337cb5	0.1752804
19	0x3dcf5a5e	0.10124658
20	0xbd8439bb	-0.06456324
21	0x3cb00686	0.021487486
22	0xbd77f11f	-0.060532685
23	0x3deec10c	0.116579145
24	0x3d34fe56	0.044187866
25	0x3d825c25	0.063652314
26	0x3e9a3f01	0.30126193
27	0xbd82bf2b	-0.06384119
28	0x3e99fa4b	0.3007377
29	0x3e85b928	0.26117826
30	0xbda0c248	-0.07849556
31	0xbd262c96	-0.040569864
32	0xbdbd17ba	-0.09233041
33	0x3e214dca	0.1575233
34	0x3df0ba99	0.11754341
35	0x3e0a477e	0.13503835
36	0x3cec6bc1	0.028859975
37	0x3d584d9f	0.0528084
38	0x3dd67d1f	0.10473084
39	0xbdef0e1e	-0.116726145
40	0x3e74b2cf	0.23896335
41	0x3e9f692b	0.31134924
42	0x3e0ec7bb	0.13943379
43	0x3e92af37	0.28649303
44	0x3e2f52ee	0.17121479
45	0xbd99cd1c	-0.07509825
46	0x3e0282b3	0.1274517
47	0x3e6fae14	0.2340625
48	0x3e5769bd	0.2103643
49	0x3e187b90	0.14890885
50	0x3d0a6f07	0.03379729
51	0x3e744685	0.23855026
52	0xbca7deff	-0.020492075
53	0x3caa980b	0.020824453
54	0x3e81dfaa	0.25365955
55	0x3e7e69b8	0.24845016
56	0xbcfb17b7	-0.030650957
57	0x3dd168e7	0.10225087
58	0x3e852912	0.26007897
59	0x3e4d410c	0.20044345
60	0xbd3b9e0b	-0.04580502
61	0xbd0c687a	-0.034279324
62	0x3c8c5c98	0.017133996
63	0x3dc9bca1	0.09850431
64	0xbde412a9	-0.11136372
65	0x3d1063df	0.035251494
66	0x3d32e6d5	0.04367717
67	0xbb1630a0	-0.0022917166
68	0x3ea4debc	0.32201183
69	0x3e1ef42c	0.15522832
70	0x3e0c4033	0.13696365
71	0x3ea1c18c	0.31592977
72	0x3e8d7685	0.27629486
73	0xbd8bbf78	-0.06823629
74	0x3e15100e	0.14556906
75	0x3e5ff290	0.21869874
76	0x3ea40fd8	0.32043338
77	0x3d28befc	0.041197762
78	0xbda12412	-0.07868208
79	0xbdd80378	-0.105475366
80	0xbccfbd77	-0.025358899
81	0x3e4c9f31	0.19982602
82	0x3e852610	0.26005602
83	0x3e72c9bd	0.2370977
84	0xbda5a185	-0.08087448
85	0x3e84d26b	0.25941786
86	0x3d2eaa2c	0.042642757
87	0xbc90c72b	-0.017673096
88	0xbd8ee5f7	-0.06977456
89	0x3e4c1e19	0.19933356
90	0xbdb83598	-0.08994597
91	0xbdba2391	-0.09088815
92	0xbcac2256	-0.021012466
93	0x3e8589df	0.2608175
94	0x3dd5309f	0.10409664
95	0xbd6ae122	-0.05734361
96	0x3dc23a0f	0.0948373
97	0x3e9bb7d0	0.30413675
98	0x3db0bf06	0.08630185
99	0x3e1dd16c	0.1541192
